backend/src/bert/models/sinks.pt (torch, 969234 bytes, 20 tensors)

fc1.weight f4 [256, 768]
000000 ce f3 cd 3a 0a ed a1 3c 8a 76 f3 3b 1e 90 8f bc
       0.0015712918 0.01976635 0.0074299024 -0.017524775
000010 3d 2a 43 3c ad 44 f9 bc f4 78 89 3b 65 f6 85 3c
       0.011911926 -0.030428255 0.004195327 0.016352842
000020 30 6d db 3c 08 e8 ba 3c 1d d7 41 bc 37 97 54 3c
       0.026785463 0.02281572 -0.011831072 0.012975506
000030 8d 9f 0e 3c f5 dd 04 bc 97 00 47 bc ca 26 5e 3d
       0.008705032 -0.008109559 -0.012146137 0.05423621
000040 74 2d 15 bd 52 a4 c7 3c ec dd 44 bd 5d 34 8b ba
       -0.0364203 0.024370346 -0.048063204 -0.0010620464
000050 56 73 9b 3d a5 1e 12 38 f2 8a 10 3c fd 8b bc 3c
       0.07590358 3.4837652e-05 0.00882219 0.02301597
000060 41 c7 cb bc af 3f 5d bd 89 7d f9 3b 2c 34 f7 bc
       -0.024875285 -0.05401581 0.007613842 -0.030176245
000070 8c b1 ea bc 55 b5 52 bd 1d c9 00 bd eb ca 5c 3b
       -0.028649114 -0.051442463 -0.031441797 0.0033690284
000080 ff 13 1b bd ad 0c 26 bd 6d 6f 5c bc 99 2c b5 ba
       -0.037860867 -0.040539432 -0.0134543 -0.0013822495
000090 fd 00 a8 bd 45 8f e8 bc df 76 e5 bc 22 f7 cb 3c
       -0.082033135 -0.028388629 -0.028010784 0.024898116
0000a0 b0 21 02 3d 18 e7 89 3b 62 4b 93 bc c0 63 b3 bc
       0.03177041 0.0042084567 -0.017980281 -0.02189815
0000b0 68 b6 96 3c 5b 40 b7 bb fe 22 d6 3a 6b 11 87 3d
       0.018397525 -0.0055923886 0.0016337333 0.06595119
0000c0 03 0b 52 3c 1b fa 5b bd 69 b4 f6 3b 3c 6c 89 bd
       0.012820008 -0.053705316 0.007528831 -0.06710097
0000d0 c1 aa e1 bc 47 6a 17 bd 1d 55 d0 3c 61 db 8d bd
       -0.027547242 -0.03696659 0.02543121 -0.06926609
0000e0 cf 39 07 bd 03 7c 69 bc 12 8e 86 3c d1 34 66 bd
       -0.033014115 -0.014250758 0.016425166 -0.056202713
0000f0 dc e1 11 bb db c6 44 3d a9 7c d0 3b 33 ff 5c 3d
       -0.0022259867 0.048041206 0.006362517 0.053954314
000100 3e 42 13 3c 4f 37 d3 bc a7 65 25 bc 8e a8 c9 ba
       0.008987961 -0.02578321 -0.010095037 -0.0015385316
000110 a8 d5 30 bd b7 c7 3f 3d 95 a0 11 3b 2b eb 8d 3c
       -0.04317251 0.046821322 0.0022220958 0.01732405
000120 8d 95 f0 3b 45 77 4d 3d 21 8d 26 3d 1a 84 a1 3c
       0.0073420466 0.050162572 0.040661935 0.019716311
000130 26 ed ab 3b eb 37 37 3c 03 c8 41 3d de 6c be 3b
       0.005246776 0.0111827655 0.047309887 0.005811318
000140 6f 0c 73 bc 3c 93 85 3c 4e c0 0a be d1 09 ee 3c
       -0.014834507 0.016305558 -0.13549921 0.029057415
000150 c6 da 2e bc 65 76 b5 3c fe 04 4c 3c 0c c6 ad 3c
       -0.010672277 0.022151181 0.012452362 0.0212126
000160 4f 5d 27 3d 93 1b 4b bc 32 41 03 bd 03 7f 7e bd
       0.04086047 -0.012396711 -0.032044597 -0.062132847
000170 8c f0 c5 3c 43 27 70 3c de f0 d8 3c 77 d8 3c 3d
       0.024162553 0.014657798 0.026482042 0.046104874
000180 71 82 0a bc 50 f8 e4 bc 37 a3 6a bd d5 ff 52 3d
       -0.008453951 -0.027950436 -0.05728456 0.05151351
000190 9f fe 3c 3c 39 55 2e bd 4a ac e8 bc 31 b1 71 bb
       0.011535316 -0.042561743 -0.028402466 -0.0036879296
0001a0 e2 d8 a3 3b 67 84 66 bd 78 81 01 bd 8b 1d 47 bd
       0.0050002197 -0.056278612 -0.03161761 -0.04861216
0001b0 d0 fd 0c 3d c6 8a 19 3d 8a c8 de bc 4d 6b d7 3c
       0.034421742 0.03748586 -0.027195234 0.026296282
0001c0 9e 0a 8f bc c0 95 77 3c d0 19 e9 bc 9b c1 12 bd
       -0.017461117 0.015111387 -0.028454691 -0.035829168
0001d0 05 89 c5 bc ce c0 a1 bc 03 10 98 bd eb 4e 42 3a
       -0.024113188 -0.019745257 -0.07424929 0.00074122724
0001e0 9f 3a 18 bd 26 c7 90 3c d4 d0 66 bd 6d 8c aa bc
       -0.03716528 0.017673086 -0.056351498 -0.020818913
0001f0 0e 54 91 3d 46 e8 9b bc cb 95 b1 bc e6 bb d6 bb
       0.0709611 -0.019031655 -0.021677872 -0.006553161
000200 c3 08 38 bd c0 fa a3 bc 4b a2 70 3d 77 b7 fd 3b
       -0.04493023 -0.020017028 0.058748525 0.007742818
000210 a3 60 07 3c b7 15 99 3c 31 7b 64 3b bd 0f 16 3c
       0.008262786 0.018687112 0.0034863467 0.009159026
000220 ba e2 da bc d1 9d 2a bd f4 66 7b bd 77 ff 16 bc
       -0.02671944 -0.04165441 -0.06137748 -0.009216181
000230 be 7a 8d 3c a3 ad df bc 49 a8 d1 3b 4c f0 70 bd
       0.017270442 -0.027304476 0.006398235 -0.058822915
000240 ae ef 72 3d 30 d6 34 3d a6 69 8b 3c 2c 27 3d bd
       0.059310608 0.044149578 0.01701815 -0.046179935
000250 79 50 2f bd 1b b2 db 3c ab 10 6c 3c 01 16 47 3a
       -0.042801354 0.026818326 0.014408271 0.00075945264
000260 cf 77 f1 bc db 36 17 3c 83 42 95 bc 82 a1 9d bc
       -0.029476075 0.009229387 -0.018220192 -0.019242052
000270 6f 4c 93 3d fd 17 c9 3c a4 65 05 bc 97 e8 39 3d
       0.07192313 0.024547571 -0.008141909 0.04538783
000280 bc 88 01 bd ff 05 b9 3d 10 65 07 3a 98 e1 91 bc
       -0.03162454 0.09034347 0.0005164901 -0.017807767
000290 de 8f c4 bc ae a4 08 3d 25 6c 43 b9 52 7b cf 3c
       -0.023994382 0.033360176 -0.00018636936 0.025327358
0002a0 44 13 80 bc 48 d6 67 3d 5a 30 08 bd 7f ff 2b 3c
       -0.015634187 0.05660084 -0.033249237 0.010497927
0002b0 56 74 a5 bb 48 dd 17 bd 81 03 0c 3d fa 29 bf 3c
       -0.0050492687 -0.037076265 0.03418303 0.023335446
0002c0 88 84 30 3d a0 0f 50 ba 5f b7 fa 3c d0 84 03 bd
       0.04309514 -0.00079368986 0.030605016 -0.03210908
0002d0 91 0e 3f 3d ac c3 b3 bc 5d 72 7c 3d 89 ee 39 bc
       0.04664475 -0.02194389 0.061632503 -0.011348375
0002e0 1f 3e cb b9 e1 92 a8 bc fe 31 19 3d b0 bf d2 b8
       -0.0003876546 -0.02057785 0.037401192 -0.00010049285
0002f0 1c f3 d6 bc 04 23 92 3c 5e 8b 52 bd 8e 7d 2d bc
       -0.02623897 0.017838962 -0.051402442 -0.010589017
000300 30 40 11 3d 93 c8 86 3d c5 81 67 3c 45 3f 73 3d
       0.035461605 0.06581225 0.014130061 0.05938651
000310 aa f1 03 bd 2a f3 3b bd 36 b0 97 bb 54 79 34 3d
       -0.03221289 -0.045886196 -0.0046291603 0.04406102
000320 ea f5 b4 bc 9b 2d 2e 3d 78 c9 ac bc e6 20 2c bd
       -0.022089917 0.04252396 -0.021092162 -0.042023562
000330 f5 c1 99 3c 26 3b 87 3d ca 06 ac 3c af 51 11 3d
       0.018769244 0.066030785 0.020999331 0.03547829
000340 25 cc 90 3b df de e1 3b 7f 22 2e bc 55 79 1a bc
       0.004418867 0.0068930234 -0.010628342 -0.009428342
000350 7e 42 ba bc 37 d7 42 3d 7a 68 26 3c 8f 65 1f 3d
       -0.022736784 0.047568526 0.010156745 0.038915213
000360 66 f8 45 3d cc 85 70 3d 55 e3 92 bb 46 fa 43 bd
       0.048332594 0.05872135 -0.0044826665 -0.0478461
000370 86 f3 24 bd e4 cc 46 3d a0 89 f1 3c d5 54 49 3c
       -0.040271305 0.048535243 0.02948457 0.012288292
000380 c1 6f e2 bc 5b 27 45 bd cd c1 55 bd ef 69 6c 3c
       -0.027641179 -0.048133235 -0.052186776 0.014429553
000390 fc 3e 9c bc 37 ba c6 3c 8e da f9 bc 30 3d 4e 3c
       -0.019073002 0.024258716 -0.030499723 0.01258783
0003a0 0f 65 99 bc a6 72 26 3b 11 25 76 bc 75 b2 de bc
       -0.018724946 0.0025397926 -0.015023486 -0.027184704
0003b0 2a e6 74 3d 68 ff ce bc 2d 91 80 bd 41 98 b3 bc
       0.059789814 -0.025268272 -0.0627769 -0.021923186
0003c0 7f 1d 8f bd 67 07 33 bd 6d 20 df bc 3e e4 3b 3d
       -0.06988048 -0.04370823 -0.027237142 0.045871966
0003d0 d2 4f 0b bd 9b 16 40 3d ff 4c cd bc 4b 51 73 bc
       -0.03401167 0.04689656 -0.025061129 -0.014850925
0003e0 d0 c3 13 bd 67 21 ee bb 8e 4e 41 bc c8 87 67 bb
       -0.036075413 -0.0072671655 -0.011798514 -0.0035328735
0003f0 99 e6 d0 bb 9a 46 b3 3b 50 f6 b3 bd fc 0c a4 3c
       -0.0063751456 0.005471063 -0.08787215 0.020025723

fc1.bias f4 [256]
000000 b5 94 01 36 d5 d9 88 b6 27 d3 a6 b5 a4 e2 fb 35
       1.9309057e-06 -4.078475e-06 -1.2429417e-06 1.8766918e-06
000010 33 15 a5 b5 44 6e 79 36 96 f9 4d 35 f8 92 49 b6
       -1.2299628e-06 3.7168074e-06 7.6731646e-07 -3.003688e-06
000020 5a 09 ae b5 dc 43 5d b4 9c de ac 35 1f 04 9a b6
       -1.2966732e-06 -2.0606916e-07 1.2879786e-06 -4.5900374e-06
000030 6d 67 91 b4 5c 26 c9 b6 98 15 12 36 f9 89 2a 36
       -2.7083607e-07 -5.9947324e-06 2.1768265e-06 2.5412285e-06
000040 89 bf e4 34 58 c6 ac b5 fc 8e 28 b3 8f 52 ae b5
       4.260767e-07 -1.2872724e-06 -3.924559e-08 -1.2988038e-06
000050 d4 60 0d b6 11 c2 21 b6 25 0d af 36 42 3a c9 b5
       -2.1066999e-06 -2.410383e-06 5.2169366e-06 -1.4992622e-06
000060 7e a0 28 36 a4 b5 8b 36 cd 13 b2 b6 be 5f 39 b5
       2.512737e-06 4.1636686e-06 -5.3071185e-06 -6.9057194e-07
000070 56 2c a5 36 83 52 a2 36 30 df a9 35 f9 a3 d6 b5
       4.9225446e-06 4.837582e-06 1.2656437e-06 -1.5991965e-06
000080 22 32 c1 34 27 6e c7 34 1c 09 88 b5 18 5c cd 34
       3.5985528e-07 3.7146785e-07 -1.0135441e-06 3.8251233e-07
000090 02 58 2f b5 ed c4 3a 34 e4 6b 1c b4 5a fb 36 35
       -6.532065e-07 1.7394241e-07 -1.4567883e-07 6.816605e-07
0000a0 aa 10 8a b6 3e 74 21 35 10 f6 fb b5 e0 f7 16 b5
       -4.1146604e-06 6.014633e-07 -1.8772571e-06 -5.624006e-07
0000b0 39 08 96 36 1c f3 01 b6 ca 84 8b b6 42 98 32 b5
       4.4713056e-06 -1.9364006e-06 -4.1579815e-06 -6.653173e-07
0000c0 1c 4e 87 b4 15 18 66 b5 27 c2 a6 35 67 a5 9f 35
       -2.5202542e-07 -8.571672e-07 1.242447e-06 1.1894562e-06
0000d0 1f 2d 35 b7 31 53 c8 b4 df c6 7a b6 13 2c 25 36
       -1.0798946e-05 -3.7313433e-07 -3.7368661e-06 2.461257e-06
0000e0 da 22 10 36 36 5b 3f 36 75 1e 81 b6 28 fe 1e b6
       2.1477958e-06 2.851431e-06 -3.8480453e-06 -2.3691773e-06
0000f0 65 f3 dd 33 7e 0b 3e 35 d2 47 90 b4 f3 a9 b1 34
       1.0335388e-07 7.079724e-07 -2.6874346e-07 3.3092473e-07
000100 e5 57 a7 33 61 32 6d b4 e8 28 27 35 62 85 27 b6
       7.7925314e-08 -2.2090673e-07 6.2271874e-07 -2.4962578e-06
000110 41 07 1a b6 14 57 33 b6 5c 82 ea b5 37 ed ef b5
       -2.295201e-06 -2.6723765e-06 -1.7472298e-06 -1.7875926e-06
000120 4a 65 a2 33 28 41 f9 b5 0c 17 8c b2 a0 0a 4e 36
       7.562137e-08 -1.8570909e-06 -1.6308626e-08 3.0702577e-06
000130 b3 64 90 b5 a0 e1 8c b6 8c 13 0a b5 3e bd c3 b5
       -1.0758143e-06 -4.1985913e-06 -5.143745e-07 -1.4583709e-06
000140 73 e8 88 b2 5d f0 53 b6 45 9f ab b5 41 e8 2b 37
       -1.593819e-08 -3.158136e-06 -1.2786846e-06 1.024647e-05
000150 97 97 a2 35 a2 dc 59 34 98 f7 0c b5 81 f5 a8 35
       1.2114059e-06 2.0289966e-07 -5.251436e-07 1.2588426e-06
000160 67 e0 20 b5 52 be 6f b6 d8 30 52 36 c5 df 8e b6
       -5.9931193e-07 -3.5724556e-06 3.132087e-06 -4.25798e-06
000170 74 78 d8 35 65 bb c6 b5 b2 ed 7f 35 3b 2e 4a b6
       1.612831e-06 -1.4806689e-06 9.5340795e-07 -3.0127255e-06
000180 78 69 6f 35 57 e4 73 35 09 27 54 36 0e b7 51 b3
       8.9187915e-07 9.085683e-07 3.1613183e-06 -4.8828092e-08
000190 60 23 15 b5 55 87 34 b3 64 79 8e 35 aa ff a9 b4
       -5.5558303e-07 -4.20326e-08 1.0615154e-06 -3.1664723e-07
0001a0 24 a5 f9 35 00 4e 17 36 22 54 fd 35 2a 65 41 36
       1.8600008e-06 2.2546155e-06 1.8874455e-06 2.8818126e-06
0001b0 be 7f a4 35 3e 33 3d 36 f1 9a 39 b6 19 74 b1 b5
       1.225613e-06 2.8193022e-06 -2.7657336e-06 -1.3221317e-06
0001c0 10 90 a3 35 c6 f5 8a b5 33 fa 38 b5 90 19 3c 36
       1.2186374e-06 -1.0353331e-06 -6.890943e-07 2.8029062e-06
0001d0 89 7e fb b6 14 d4 69 36 42 5e b8 33 54 e5 47 b6
       -7.4951136e-06 3.4843151e-06 8.585313e-08 -2.9786797e-06
0001e0 84 94 ea 36 2f 10 2e b6 b0 f5 62 36 5a e5 df 34
       6.991033e-06 -2.593744e-06 3.3819633e-06 4.1703862e-07
0001f0 71 1e d3 35 76 8d 23 b6 7a 71 17 35 90 31 09 35
       1.5729585e-06 -2.4371234e-06 5.6417014e-07 5.11086e-07
000200 68 5f db 35 a2 2f c7 b4 11 46 34 36 c0 9d 1c 35
       1.6344538e-06 -3.7101296e-07 2.6862874e-06 5.8344085e-07
000210 7e 2d f9 b5 07 98 ae 36 ee 4b 2c b5 3c 58 c5 35
       -1.8565186e-06 5.2033024e-06 -6.4185485e-07 1.4703323e-06
000220 db c7 92 34 9a 88 23 b6 61 68 4f 35 a6 8c 04 b1
       2.7340033e-07 -2.4368405e-06 7.72654e-07 -1.9288477e-09
000230 a4 e6 1a b6 a7 6e cd b4 bc a1 e4 34 95 03 86 36
       -2.3082039e-06 -3.8264736e-07 4.2585987e-07 3.993928e-06
000240 18 77 1c b5 b7 bc e5 b5 46 b1 9c b6 17 87 2d b5
       -5.8287833e-07 -1.7116753e-06 -4.6697996e-06 -6.4644104e-07
000250 40 2d 56 b5 41 e5 ae b5 9a 8f 7c 35 a1 84 11 b5
       -7.978706e-07 -1.3030732e-06 9.4086283e-07 -5.420971e-07
000260 0c ac fe b5 1f ac 01 b6 56 2e 2a 35 ff 55 2a b6
       -1.8974547e-06 -1.9322686e-06 6.339736e-07 -2.538203e-06
000270 06 ee 3d b3 4b f7 b3 35 fc 3f 1c 35 53 cb a5 b3
       -4.4221473e-08 1.3408511e-06 5.820764e-07 -7.720396e-08
000280 c5 56 34 b5 96 d9 1d 36 fb bb f1 b5 f3 c0 0d b5
       -6.718149e-07 2.3521475e-06 -1.8010609e-06 -5.280737e-07
000290 0c 66 7c 36 c1 72 77 b6 7a a7 b8 36 72 d2 54 36
       3.7610325e-06 -3.6872664e-06 5.503124e-06 3.1712957e-06
0002a0 89 3e 23 b4 9d ca 56 35 61 47 c4 b4 36 09 0d 35
       -1.5203308e-07 8.0016054e-07 -3.655978e-07 5.2539997e-07
0002b0 f9 3c 11 35 61 51 95 b5 4e db 36 35 1a 30 b3 35
       5.4105436e-07 -1.112505e-06 6.8119414e-07 1.3350539e-06
0002c0 01 b7 83 35 b9 ac 89 35 d2 71 d3 b6 97 4a ac 34
       9.813522e-07 1.0257564e-06 -6.3015405e-06 3.2091768e-07
0002d0 c3 32 42 b5 f1 75 aa 34 7c 40 df b5 cc d7 0e 35
       -7.23445e-07 3.175078e-07 -1.6633562e-06 5.321315e-07
0002e0 48 57 e4 b5 ac 4a 20 36 03 be a4 b6 cc 9e 4e b5
       -1.7012726e-06 2.3885323e-06 -4.909701e-06 -7.697206e-07
0002f0 d0 85 43 b6 71 a8 24 34 ab 21 2d b6 87 a7 4a 35
       -2.9135153e-06 1.5334969e-07 -2.5798606e-06 7.549465e-07
000300 32 e5 00 b5 70 44 9c 35 57 2b 3a b5 94 3e 0b 36
       -4.801724e-07 1.1642824e-06 -6.935347e-07 2.074904e-06
000310 c7 31 ae 36 58 b6 3e 36 cd b4 16 36 77 11 71 b6
       5.191399e-06 2.8418344e-06 2.2456982e-06 -3.5921964e-06
000320 93 af fb 36 26 57 1a 35 4c 30 08 36 b2 d1 3b 36
       7.5008224e-06 5.749629e-07 2.0293692e-06 2.798723e-06
000330 fa 0d c8 35 be 9b ea 34 d7 68 00 b6 e3 84 99 34
       1.4905229e-06 4.3699214e-07 -1.9134511e-06 2.859516e-07
000340 c6 65 ba b6 41 bf 91 36 00 2d 28 b6 7a 55 c2 b5
       -5.55508e-06 4.3436016e-06 -2.5060144e-06 -1.4479003e-06
000350 03 b7 bc b5 80 a3 72 b6 81 2a 7f 35 0c f8 a7 b4
       -1.4060355e-06 -3.615598e-06 9.5056754e-07 -3.1286652e-07
000360 63 c0 cf 34 5f 44 a3 36 9c ea 12 36 c9 bf cd 35
       3.8696734e-07 4.865738e-06 2.1892256e-06 1.5329507e-06
000370 54 e2 c2 b5 54 42 96 b5 c0 3e 0a b6 5f 50 65 35
       -1.4519997e-06 -1.1195175e-06 -2.0600128e-06 8.5426103e-07
000380 ba 08 7d 35 42 9e a4 35 94 4b 81 b4 41 43 fa b3
       9.4262543e-07 1.2265011e-06 -2.4083113e-07 -1.16537656e-07
000390 4c 39 f1 34 3b f9 47 34 31 e9 f7 b6 b9 2c 4c 34
       4.4931437e-07 1.8623989e-07 -7.3883207e-06 1.901525e-07
0003a0 9d b3 c6 b5 ab b4 b0 36 10 ab 01 b6 3a a9 73 b4
       -1.4804424e-06 5.2662413e-06 -1.932207e-06 -2.2692703e-07
0003b0 b8 f9 3a 34 49 c3 b8 b5 ab eb ef b6 f8 02 82 b4
       1.7413447e-07 -1.3765904e-06 -7.1501904e-06 -2.4216547e-07
0003c0 b1 15 ed 35 d6 5c 11 35 f2 df db 35 e8 2d af b5
       1.7664189e-06 5.4151803e-07 1.6381948e-06 -1.3051877e-06
0003d0 1c 8f 70 35 06 ac 6b b6 75 f4 50 b4 07 07 b6 35
       8.961522e-07 -3.511786e-06 -1.9460443e-07 1.3562102e-06
0003e0 9c 55 88 35 dc da 55 35 56 07 15 36 fe bb 6f 36
       1.0157705e-06 7.9667166e-07 2.2207e-06 3.57232e-06
0003f0 b4 1d bb 35 30 2a 57 b6 4e 5f 10 b5 92 63 5d 36
       1.394123e-06 -3.2062053e-06 -5.3782867e-07 3.2989524e-06

bn1.weight f4 [256]
000000 d7 1b 6c 3f a8 9b 78 3f 68 2a 80 3f 3d 8d 81 3f
       0.9222998 0.9711251 1.0012941 1.0121228
000010 bc 55 83 3f 5d 12 64 3f ed 59 72 3f 5f b7 76 3f
       1.0260539 0.8909052 0.94668466 0.9637355
000020 ba 11 63 3f f1 fd 73 3f eb 89 90 3f 7c 06 84 3f
       0.88698924 0.9530936 1.1292089 1.0314479
000030 54 47 66 3f e0 00 75 3f 92 be 76 3f c3 ad 81 3f
       0.8995259 0.9570446 0.9638454 1.0131153
000040 0b 73 6b 3f 5c 4f 6e 3f fa 2a 64 3f 17 41 4c 3f
       0.91972417 0.9308984 0.8912808 0.7978682
000050 ec 12 76 3f 03 b1 67 3f 60 d4 80 3f 16 f5 77 3f
       0.9612262 0.90504473 1.0064812 0.96858346
000060 f4 c0 68 3f 05 bb 73 3f 9d 6d 83 3f ec 8e 74 3f
       0.90919423 0.95207244 1.0267826 0.9553058
000070 ee c6 4e 3f 75 a6 74 3f d2 32 79 3f 12 ac 68 3f
       0.8077229 0.95566493 0.9734317 0.9088756
000080 44 ec 5f 3f db 6c 7d 3f 3e 8a 5a 3f a6 ca 79 3f
       0.8746989 0.98994225 0.8536719 0.9757484
000090 2c cc 7d 3f 19 ca 65 3f 23 b7 6f 3f fb 1c 77 3f
       0.99139667 0.897615 0.9363882 0.96528596
0000a0 c9 28 6f 3f c2 35 63 3f 4e c1 75 3f 33 b8 7d 3f
       0.9342161 0.887539 0.95998085 0.9910919
0000b0 3b 04 72 3f df fc 6a 3f 54 c9 7c 3f 54 df 73 3f
       0.94537705 0.917921 0.987447 0.95262647
0000c0 54 69 81 3f 0f 67 77 3f bf a5 7d 3f 47 bd 6d 3f
       1.0110269 0.9664163 0.99081033 0.9286694
0000d0 00 99 81 3f 9f 4a 8c 3f ea 5d 67 3f 54 13 81 3f
       1.0124817 1.0960273 0.90377676 1.0084023
0000e0 31 f7 6a 3f 8f 94 7a 3f 2a c3 74 3f 97 58 74 3f
       0.91783434 0.9788293 0.95610297 0.9544768
0000f0 0d 16 7a 3f 7e 8d 85 3f bf 75 52 3f 08 07 71 3f
       0.97689897 1.0433805 0.82210916 0.94151354
000100 34 55 82 3f 40 40 54 3f f3 7d 6d 3f 55 bb 6e 3f
       1.0182252 0.8291054 0.9277031 0.93254596
000110 5a b0 75 3f b6 f4 80 3f de 35 74 3f 18 7c 6e 3f
       0.95972216 1.007468 0.95394695 0.931581
000120 c6 1c 79 3f 6f f5 77 3f a2 39 79 3f 7c 31 81 3f
       0.9730953 0.96858877 0.97353566 1.0093226
000130 93 af 7f 3f ec 52 86 3f 70 b0 79 3f 52 e2 71 3f
       0.9987728 1.0494056 0.9753485 0.9448596
000140 0d 63 48 3f 81 f2 79 3f f0 19 6e 3f b9 7a 83 3f
       0.7827614 0.97635657 0.9300833 1.0271827
000150 a0 6e 76 3f df bf 69 3f ab 64 6a 3f 34 13 7e 3f
       0.9626255 0.913084 0.9155986 0.9924805
000160 54 c6 69 3f b8 d4 6b 3f 10 f0 7e 3f 74 ab 7e 3f
       0.9131825 0.9212146 0.99585056 0.99480367
000170 48 ce 5e 3f 1e 86 51 3f f7 03 8b 3f 3e 0c 8b 3f
       0.8703351 0.8184527 1.0860585 1.0863111
000180 58 75 45 3f cb 87 52 3f 1d 3d 59 3f d2 27 82 3f
       0.7713218 0.82238454 0.84858876 1.0168402
000190 7c 1a 7a 3f e7 90 7c 3f 0a ca 63 3f 1d d7 63 3f
       0.9769666 0.98658603 0.8898016 0.8900011
0001a0 76 54 69 3f 2c a7 6d 3f f4 cb 84 3f 20 3f 71 3f
       0.911445 0.9283321 1.0374742 0.94236946
0001b0 c1 b8 6c 3f a8 c8 73 3f 11 89 6c 3f 7a f4 75 3f
       0.9246941 0.9522805 0.92396647 0.96076167
0001c0 92 d0 82 3f 94 54 64 3f bd 56 61 3f 51 df 76 3f
       1.0219901 0.89191556 0.8802298 0.96434504
0001d0 67 60 83 3f 2d 6e 8d 3f 76 30 62 3f 1a e7 82 3f
       1.0263795 1.1049248 0.88355196 1.0226777
0001e0 df 77 76 3f ed 46 72 3f ee c8 83 3f 09 6d 58 3f
       0.9627666 0.94639474 1.0295694 0.84541374
0001f0 3a 13 75 3f 14 91 6c 3f d6 ca 6a 3f fd 40 67 3f
       0.9573246 0.9240887 0.91715753 0.9033354
000200 24 9e 80 3f 2c bf 84 3f 23 a2 6e 3f 5d b7 64 3f
       1.0048261 1.0370841 0.9321615 0.8934229
000210 41 f0 68 3f 96 6d 7a 3f 1f 44 80 3f c3 b1 78 3f
       0.909916 0.97823465 1.0020789 0.9714624
000220 e3 47 75 3f 82 46 80 3f 48 e3 77 3f 2a e2 7a 3f
       0.95812815 1.0021517 0.9683118 0.9800135
000230 f1 74 79 3f 1d 32 7d 3f 90 9f 66 3f a7 6d 89 3f
       0.97444063 0.9890459 0.90087223 1.0736588
000240 24 b5 66 3f f9 83 79 3f ce 89 7f 3f a7 d1 68 3f
       0.9012015 0.97467 0.9981965 0.90944904
000250 0f 16 7f 3f 00 40 6d 3f 60 84 74 3f 29 6d 5c 3f
       0.99643034 0.9267578 0.9551449 0.86104065
000260 fb 3a 56 3f bb 1d 7f 3f a2 bf 8a 3f bb f0 6e 3f
       0.8368375 0.9965474 1.0839732 0.93336076
000270 01 95 6a 3f f3 77 79 3f 70 be 62 3f ca b6 62 3f
       0.9163361 0.97448653 0.88571835 0.88560164
000280 55 cd 60 3f 8e f0 82 3f 42 7a 80 3f 22 63 67 3f
       0.8781331 1.0229661 1.003731 0.9038564
000290 41 df 8d 3f 19 73 70 3f 0a f8 85 3f 20 58 84 3f
       1.1083757 0.93925625 1.046632 1.0339394
0002a0 30 1b 5d 3f 8c 1f 6e 3f f1 ab 79 3f a9 33 7c 3f
       0.8636961 0.93016887 0.97527987 0.9851633
0002b0 d7 52 74 3f 8c 85 78 3f 08 ac 71 3f 81 30 86 3f
       0.95438904 0.97078776 0.94403124 1.0483552
0002c0 38 31 83 3f 33 b0 6b 3f 2a fc 7e 3f 4b 15 6d 3f
       1.0249395 0.92065734 0.9960352 0.92610615
0002d0 9e 8f 7e 3f 2c a3 6d 3f 26 3d 72 3f 8d 42 52 3f
       0.9943789 0.92827106 0.94624555 0.821328
0002e0 f0 cc 60 3f d1 2b 74 3f 82 91 85 3f f0 b7 70 3f
       0.8781271 0.9537936 1.043503 0.94030666
0002f0 bb ba 76 3f 6f 41 80 3f b9 4d 6f 3f 99 23 76 3f
       0.9637868 1.0019969 0.9347797 0.9614807
000300 8a 18 75 3f 72 d0 83 3f b3 2e 81 3f a9 0b 73 3f
       0.9574057 1.0297987 1.0092376 0.94939667
000310 20 75 6d 3f b8 8e 73 3f 87 2c 77 3f 89 9b 81 3f
       0.92756844 0.95139647 0.9655232 1.012559
000320 1f b9 87 3f 7c 5c 71 3f 64 86 5e 3f 67 b1 71 3f
       1.060337 0.94281745 0.86923814 0.9441132
000330 39 c2 65 3f 85 cc 78 3f bb 2c 82 3f 79 6d 56 3f
       0.89749485 0.9718707 1.0169901 0.8376079
000340 1d 57 84 3f c6 55 80 3f f7 cd 74 3f 6d e2 83 3f
       1.0339085 1.0026176 0.9562678 1.0303475
000350 71 b1 7e 3f 49 7e 8d 3f 79 55 70 3f 29 7f 7c 3f
       0.99489504 1.1054164 0.9388042 0.9863153
000360 f3 26 73 3f 64 a9 7f 3f 69 81 79 3f bb 57 77 3f
       0.94981307 0.99867845 0.9746309 0.9661824
000370 7d 61 69 3f df f1 76 3f f8 24 87 3f d5 46 52 3f
       0.9116438 0.96462816 1.0558157 0.8213933
000380 f1 68 6f 3f a8 c9 7b 3f 5c e5 7d 3f e8 15 75 3f
       0.935195 0.9835458 0.991781 0.9573655
000390 20 fc 65 3f b3 82 82 3f 94 f7 7a 3f 60 a0 5d 3f
       0.8983784 1.0196136 0.98034024 0.8657284
0003a0 4b 69 80 3f 5f f7 6a 3f c7 70 78 3f 14 07 75 3f
       1.0032133 0.9178371 0.97047085 0.95713925
0003b0 d7 2c 5c 3f 7d 9b 56 3f df 4d 82 3f dd 4e 79 3f
       0.8600592 0.83831006 1.0180014 0.9738596
0003c0 8a 90 6b 3f 1e cf 6c 3f ad 7d 52 3f 83 46 7e 3f
       0.92017424 0.92503536 0.82223016 0.9932634
0003d0 4a 63 74 3f 1c 7c 80 3f 34 b0 61 3f 27 27 7f 3f
       0.95464003 1.0037875 0.8815949 0.99669117
0003e0 95 99 7a 3f b8 a2 81 3f 8a 86 7d 3f 50 a9 71 3f
       0.978906 1.0127783 0.99033415 0.94398975
0003f0 df 59 7c 3f fd 8c 84 3f 5f a4 63 3f 76 6a 7e 3f
       0.9857463 1.0355526 0.88922685 0.99381196

bn1.bias f4 [256]
000000 dc b1 40 be 75 28 8c bd bb 3b b2 bd ed bc dc bd
       -0.18817848 -0.06843654 -0.08702799 -0.10778222
000010 49 d4 0d be ea 79 6f bd 96 c0 97 bd 0c be 94 bd
       -0.13850512 -0.058465876 -0.0740978 -0.07262811
000020 57 9b 15 be d6 da b0 bd 18 d8 1a be 00 de 30 be
       -0.14610039 -0.0863549 -0.15121496 -0.17272186
000030 ef 4c e2 bd 30 71 8c 3c c4 17 90 bd 96 97 ee bd
       -0.1104983 0.017143816 -0.07035783 -0.116500065
000040 9f 63 70 bd 0d d9 b8 bd a6 e1 1b be fe 8b ab bd
       -0.058688756 -0.09025774 -0.15222797 -0.08376311
000050 ca e6 cc bd 39 b6 1a be 00 6a 5c bd eb a7 8d bd
       -0.10004957 -0.15108575 -0.053812027 -0.069167934
000060 1c 4d 91 bc 0b 75 e3 bd 36 87 42 be ed cd 2d be
       -0.017736964 -0.111063085 -0.18996891 -0.16973086
000070 9d 26 b0 bd 74 bd 1a be d6 43 c5 bd 08 fa bb bd
       -0.08601115 -0.15111333 -0.09632079 -0.09178549
000080 27 8a 6a bd c2 fc 12 bd 42 93 e5 bd b4 b1 25 bd
       -0.05726066 -0.03588558 -0.11209728 -0.040452674
000090 3e f4 28 be 49 7c 33 be e7 db dc bd a7 58 54 bd
       -0.16499421 -0.1752788 -0.107841305 -0.051842358
0000a0 96 05 49 bd ee d8 b2 bd d0 8f 96 bd 1c f5 0e be
       -0.049077593 -0.08732782 -0.07351649 -0.1396069
0000b0 13 26 c9 bd 68 c7 8e bd 11 9a 36 be 32 8c 19 3d
       -0.09821715 -0.069716275 -0.17832209 0.037487216
0000c0 a3 ee 50 be 6c c3 fa bd 58 46 39 be f1 a1 95 bd
       -0.20403533 -0.12244305 -0.1809324 -0.073062785
0000d0 f0 b1 17 be ee e1 c0 bb 4d d9 93 bd 33 92 1b be
       -0.14813972 -0.005886308 -0.07219181 -0.1519249
0000e0 64 2c 2d bc b7 9e 61 bd fc 25 40 bd b0 bc 0b be
       -0.010569666 -0.055083003 -0.046911225 -0.13646197
0000f0 87 c2 85 bd 84 fe c9 bd 8f f8 15 be 2d 54 a8 bd
       -0.06531244 -0.09862998 -0.14645599 -0.0821918
000100 76 b9 e6 bd aa d9 14 be 68 a7 1a be d8 e5 a8 bc
       -0.112658426 -0.14536157 -0.15102923 -0.02061741
000110 14 c6 c3 bd c8 8f 81 be 30 28 18 be 05 f8 5a bd
       -0.09559265 -0.2530501 -0.1485908 -0.053459186
000120 c5 67 26 be a4 b5 a8 bc 0b 08 22 bd 2c 23 46 be
       -0.16250522 -0.020594425 -0.03955845 -0.19349355
000130 13 31 5a be 84 43 6b bc 2e 49 2b be 83 6f 42 ba
       -0.21307783 -0.014359359 -0.16727135 -0.0007417129
000140 1b 0c 10 bd 18 85 81 bd bd d7 04 be c7 5c e2 bc
       -0.035167795 -0.06324214 -0.12972923 -0.02763213
000150 ac 31 94 bd 37 da e6 bd 44 3f 22 be 77 cc d7 bd
       -0.07236037 -0.1127209 -0.15844446 -0.105370454
000160 da e9 01 bd 40 10 04 be e7 6c 81 bc ef 42 38 bb
       -0.03171716 -0.12896824 -0.015798999 -0.0028116067
000170 5e 43 c1 3b 6a 4d 32 be ea 05 ec bd da 7b 2b be
       0.0058979234 -0.17412344 -0.115245655 -0.16746464
000180 81 10 6c bd 18 24 ce bd 12 67 53 bd 29 6f 6b bd
       -0.057632927 -0.10065478 -0.051611967 -0.057479057
000190 5b c1 21 be 1f 4d 3e be e5 1c 8a bd 44 ed dc bc
       -0.15796416 -0.18584107 -0.067437924 -0.026968606
0001a0 cd b6 72 bd 93 83 fe bd 91 d7 43 bd 64 f1 bd bb
       -0.059256364 -0.124274395 -0.047813002 -0.0057965983
0001b0 d6 28 48 bd 91 f2 11 be 99 4a c0 bd a7 cf 8e bd
       -0.04886707 -0.14252688 -0.093892284 -0.069732
0001c0 49 18 24 be 96 c2 09 be ef 7f e5 bc 77 69 1a be
       -0.16024889 -0.13453135 -0.028015105 -0.15079294
0001d0 bf b0 0f be ba b0 0d be c4 9c 0f be 63 01 ce bd
       -0.14032267 -0.13836947 -0.14024645 -0.10058858
0001e0 df 90 7e bd 86 c6 5a 3c 06 7f 58 bd 75 81 6a ba
       -0.06214988 0.013352996 -0.052855514 -0.0008945682
0001f0 f6 f7 a4 bd 18 f6 fc bd e9 7d 3e be 41 6f ef bc
       -0.08055107 -0.12351626 -0.18602718 -0.029227855
000200 53 7a 57 be 1f 73 cb bd d2 db f5 3c e6 26 35 be
       -0.21042757 -0.09934067 0.030012045 -0.1769062
000210 75 67 34 be ee 2b 1b be a2 28 1c bc a9 9e 96 bd
       -0.1761759 -0.15153477 -0.009531172 -0.07354481
000220 c0 79 a0 bd bd 77 2c be ca 41 61 bd 7a 69 d9 bc
       -0.07835722 -0.16842552 -0.054994382 -0.026539553
000230 79 e3 32 be 30 60 33 be 85 09 6d bd 0d 1d cd bd
       -0.17469586 -0.17517161 -0.057870407 -0.100153066
000240 f4 77 d7 bd fd 81 a8 bb 71 fb a1 bc 86 26 fe bd
       -0.10520926 -0.005142449 -0.019773217 -0.124096915
000250 f9 a5 31 be 81 10 53 bd 9c fd 59 bc a0 30 87 bd
       -0.1734847 -0.05152941 -0.013305094 -0.06601071
000260 a4 af 95 bd 0a 3e 15 bd 5b 3a 0d be 0d be 4a be
       -0.073088914 -0.03643612 -0.13791792 -0.19799061
000270 f8 b6 ce bd b4 9c cd bc 5b 0c c9 bd 1a 0b a2 bc
       -0.10093492 -0.025099136 -0.0981681 -0.019780684
000280 bd 79 22 be 8b e4 a7 bd 64 33 82 be 7e ca 45 bd
       -0.15866752 -0.08197888 -0.25429833 -0.048288815
000290 e6 7f 62 bd 93 f8 17 be 2d 9d b5 bd b6 4a 4c be
       -0.055297755 -0.14840917 -0.088678695 -0.19950375
0002a0 11 94 e7 bd 7b f7 8e bd 9f 90 33 be 50 0f f1 bc
       -0.11307538 -0.06980797 -0.17535637 -0.029426247
0002b0 b1 57 b2 bd 62 9c 96 bb 50 bb 15 be ee b8 09 bd
       -0.08708132 -0.004596279 -0.14622235 -0.03362363
0002c0 10 db ab bd 57 fb 76 bc 0e ca 4d be e2 c5 f2 bd
       -0.08391392 -0.0150745725 -0.20096609 -0.118541494
0002d0 e1 8a 8a bd 81 98 11 be 2e af 09 be 0b c0 5e bd
       -0.0676477 -0.14218332 -0.13445732 -0.054382365
0002e0 56 83 f9 bd b6 7f b1 bc 83 f4 b6 bd 05 c2 11 be
       -0.121832535 -0.021667343 -0.08933356 -0.14234169
0002f0 fa f4 3b be 1c c2 00 be f4 91 33 be be 10 41 be
       -0.1835517 -0.12574047 -0.17536145 -0.18854043
000300 93 65 f1 bd 10 b0 3a be 88 fb 29 be 94 0d c6 3b
       -0.11786952 -0.18231225 -0.16599858 0.006044099
000310 e4 60 c2 bd 7b f6 d0 bd 2d ae 5b be 9c 8b 93 bd
       -0.09491137 -0.102032624 -0.21453162 -0.07204363
000320 1f e7 49 be b5 f3 e3 bd a8 9a 8a bd 65 9b 8d bd
       -0.19717072 -0.11130468 -0.067677796 -0.06914405
000330 ca bb 42 bd c4 52 16 be 78 b0 61 be b1 5e d9 bc
       -0.04754237 -0.1468001 -0.22039974 -0.02653441
000340 27 3c da bc 01 1e 29 be fb f7 35 be b8 53 fe bc
       -0.026640011 -0.16515352 -0.17770378 -0.03104578
000350 8f c3 55 bd 3f c7 1b 3c 39 e9 22 be 4e 6a 7b bd
       -0.052188452 0.009507953 -0.1590928 -0.061380677
000360 d8 7b 87 bc c0 60 13 be e9 ab 34 be be bc 2f bd
       -0.016538545 -0.14392376 -0.17643704 -0.042904608
000370 e3 61 1a be 03 a1 73 bd ae b5 1b bd 16 ea c6 bd
       -0.15076403 -0.059479725 -0.03801506 -0.09712617
000380 e4 00 1a be 41 83 54 bd 77 83 21 be 62 b1 8f bd
       -0.15039402 -0.051882986 -0.15772806 -0.07016255
000390 df ec d0 bd e6 18 83 39 33 4e 3f bc 70 6e d5 3c
       -0.102014296 0.00025004818 -0.011676359 0.026053637
0003a0 82 53 d5 bd c5 79 f0 39 35 24 9c bd f0 fc 45 be
       -0.104163185 0.00045867093 -0.076240934 -0.19334769
0003b0 66 df 2a bb e4 10 b8 bd 3e 84 86 bd 7f 82 c3 bc
       -0.0026073097 -0.08987597 -0.06568192 -0.023865936
0003c0 e4 83 95 bd 91 6e e2 bd 4f 02 75 bd 79 83 a5 bd
       -0.07300547 -0.11056245 -0.059816655 -0.08081717
0003d0 de 4c b2 3c 5e 11 b5 bd ba 7e 11 be 0a e6 f8 bd
       0.021765169 -0.08841203 -0.14208499 -0.121532515
0003e0 48 47 97 bc d6 8f 38 be 82 83 44 bd cc c4 a7 bd
       -0.018466607 -0.18023619 -0.047976978 -0.08191833
0003f0 94 07 e0 bc ea 65 4e be b0 67 e0 bc c5 16 01 bd
       -0.027347364 -0.20156065 -0.027393192 -0.031515855

bn1.running_mean f4 [256]
000000 87 56 bb bd 5b 8f 15 bf e9 12 bb 3e 87 0c 51 bd
       -0.09147363 -0.5842187 0.36537865 -0.051037338
000010 a5 c0 bb be 37 82 73 3d 1b 44 64 3e b9 d4 50 3f
       -0.36670414 0.059450354 0.22291605 0.8157459
000020 09 c4 8a 3d 19 e8 b5 bd f7 05 15 be 81 fc 70 3e
       0.06775672 -0.0888216 -0.14553057 0.23533823
000030 2c d3 94 3e 66 65 ea 3c c7 55 98 3e f8 a8 d6 bd
       0.2906736 0.028612804 0.29752943 -0.10481447
000040 aa 98 23 bd 4d 1e 6f be a9 1d 2a 3e 8e a2 6d 3d
       -0.039940514 -0.23351403 0.16612877 0.058016352
000050 f1 6f 68 bd 99 f2 4c be 4c a7 df 3e d5 3f 79 3e
       -0.05674738 -0.20014419 0.43682325 0.24340756
000060 b3 76 27 be 31 4b 93 be 7f c6 ed 3d da 1d 6d be
       -0.16353874 -0.28768304 0.11610126 -0.23155919
000070 41 69 5e 3e ad 49 3c 3e 4a 75 13 3d 2d 14 c7 3c
       0.21719839 0.1838748 0.036000527 0.024301613
000080 d4 19 6d be 3d 97 6d 3d ba be bb 3e 15 b0 11 be
       -0.23154384 0.05800556 0.3666895 -0.14227326
000090 26 fd c4 bc b0 fd 56 bd b6 1c 69 3d 7f 02 db bc
       -0.024046492 -0.05248803 0.056912147 -0.026734589
0000a0 d9 79 76 3d 1b 39 89 3e 11 e4 4e 3c 8d 97 4a 3c
       0.060174797 0.2680138 0.012627617 0.012365234
0000b0 49 db 00 bd 33 c0 3e 3e 18 78 49 3e 86 ef 8d be
       -0.031459127 0.18628006 0.19674718 -0.27721804
0000c0 86 f5 66 3e 19 e3 e1 3e 45 b8 2a be 8d 6d 6f be
       0.22554597 0.44118574 -0.16671856 -0.23381634
0000d0 c9 43 13 3e 4d 84 c8 be f8 d3 8d be 99 f9 f8 bd
       0.14381327 -0.39163437 -0.27700782 -0.12156982
0000e0 44 29 b0 be 8c 4b 32 3e ef 58 28 3e 19 7b a7 3b
       -0.34406483 0.17411631 0.16440175 0.00511111
0000f0 fd 00 ea bd d9 cb a1 3e 19 e3 ce be b2 a5 3e be
       -0.1142597 0.31600836 -0.40407637 -0.18617895
000100 e0 0b 24 3f 28 39 44 3c 9a a3 1a be 9b 94 06 bf
       0.6408062 0.011976518 -0.15101472 -0.52570504
000110 96 0b 16 be b4 84 97 3e 48 f3 ba 3e 58 d1 24 3e
       -0.14652857 0.29593432 0.36513734 0.16095483
000120 a3 dd ef 3e be c3 d5 be 12 75 05 3d 8f b2 0d bb
       0.46848783 -0.41750902 0.03258235 -0.0021621322
000130 7e 82 51 3d fe 12 e4 3e d3 dd 72 3e cd a4 2e be
       0.051149838 0.4454574 0.23717432 -0.17055054
000140 79 67 29 3e 54 67 cf 3d e2 57 2f 3e 66 6d 63 be
       0.16543378 0.1012713 0.17123368 -0.22209701
000150 9c c6 07 be 5f 88 1f be 62 8d 8a 3e 4d 37 b2 3e
       -0.13259357 -0.15579365 0.27060992 0.34807816
000160 f2 47 d4 be ff 92 08 3f 04 7c b1 bc 7d ba e6 3d
       -0.4146114 0.533493 -0.02166558 0.112660386
000170 e8 3e c5 3d 4e 42 9d bd 06 ac ad 3e 8e 54 37 3f
       0.09631139 -0.07678662 0.33920306 0.71613395
000180 3d e8 0a bf 5b fe 4b 3e fa d3 49 bd 3b 7c 34 bf
       -0.5426062 0.19921248 -0.049274422 -0.7050206
000190 37 b1 b3 bd ec 02 79 3e 29 99 10 3f 17 9b 0a bf
       -0.087740354 0.24317521 0.56483704 -0.541429
0001a0 8b 3e ba be 5c 02 33 be 0e 9f 02 bf 75 54 ca be
       -0.36375841 -0.17481369 -0.5102395 -0.3951756
0001b0 4f 00 8c be 9e e2 00 3e b7 68 8b 3e d6 91 42 be
       -0.27343985 0.12586448 0.2722833 -0.19000944
0001c0 94 2b 63 3d 5d 37 b8 bd f8 0a 74 be 92 47 43 3e
       0.05546148 -0.08994935 -0.23832309 0.1907027
0001d0 5e d0 e8 3c 4d c8 3e 3e 22 92 15 3d a8 a6 16 bf
       0.02841967 0.18631096 0.036516316 -0.5884805
0001e0 79 05 c8 bd 72 29 fc be bd 6e 3c bc f2 6f 8d 3e
       -0.09766669 -0.4925037 -0.011501011 0.2762447
0001f0 68 f2 c3 bd 9d a8 60 bd 6e 79 21 3e be fd f4 bd
       -0.0956772 -0.054848302 0.15768978 -0.1196246
000200 1e 5b 34 3e 36 8e 2e 3f 10 4a dd be 52 67 e1 3e
       0.17612883 0.68185747 -0.43220568 0.4402414
000210 2d fa 45 3b 16 58 63 3e ba 20 b2 3d e2 84 97 be
       0.003020893 0.22201571 0.08697648 -0.2959357
000220 8e fc c5 3d 67 7e 04 be 34 53 f6 bd 88 39 9c 3d
       0.096673116 -0.12938844 -0.120275885 0.07628161
000230 73 b4 c5 3e b5 87 08 bd 9b 50 22 3e 9c c6 8c 3e
       0.38614234 -0.033332545 0.15851061 0.27495277
000240 6a 9c 11 be bd 0e 53 3e 9a 21 ae 3d ae 64 78 bc
       -0.14219823 0.20611091 0.08502503 -0.015160723
000250 4e 27 16 be 8e ad d7 3d c8 78 78 3d 31 01 c3 be
       -0.14663431 0.1053115 0.06066206 -0.38086846
000260 a1 ac d3 bd 7d 98 00 bf 9b 7d 46 3e b8 c7 1b 3f
       -0.10335661 -0.5023268 0.19383852 0.6085162
000270 ea e7 13 bb 86 4c 72 3c 35 43 30 be 62 41 3b bd
       -0.0022568651 0.014788752 -0.17213137 -0.04571665
000280 b0 87 aa bb 20 41 85 be 2e a6 23 3f 07 dc cd bd
       -0.0052041635 -0.2602625 0.63925445 -0.100517325
000290 21 7b 7a be 50 1d 93 3c 47 35 13 3f 91 0d 00 3f
       -0.24461032 0.017958313 0.5750317 0.500207
0002a0 e6 03 7f 3e 38 96 e6 3e 01 62 2d bc 16 fd e0 be
       0.24903831 0.45036483 -0.010582448 -0.4394309
0002b0 ab 6e e4 3e 13 16 1b bf 8c d5 16 bd 41 b9 a2 bd
       0.44615683 -0.6058056 -0.036824748 -0.07945491
0002c0 e3 2b 40 3e 82 88 38 be 67 a4 66 3e a0 d6 52 be
       0.18766741 -0.18020824 0.22523652 -0.20589685
0002d0 91 8b 19 3d 00 bb d3 3d ea 08 69 3e 10 bd 25 bf
       0.037486617 0.10338402 0.22757307 -0.6474161
0002e0 56 a8 52 be 20 83 28 be 0a e3 3a 3e 08 05 91 be
       -0.20572028 -0.1645627 0.18250671 -0.2832415
0002f0 f7 1f 01 3f 35 e0 e4 3d 1b b5 b5 3d 83 db 96 3d
       0.504394 0.111755766 0.08872434 0.07366087
000300 03 17 96 3e c3 52 fe bd 00 6e 2e 3f 36 fa 0e be
       0.29314432 -0.12418129 0.68136597 -0.13962635
000310 d2 c4 63 be 3b 2e 1e 3f 81 da c3 3e da 29 0d 3d
       -0.2224305 0.6178929 0.38252643 0.03446374
000320 06 f2 06 3f a1 2f 17 be 12 71 be 3e 44 bf 6a 3e
       0.5271305 -0.14764263 0.3719564 0.22924525
000330 29 64 f5 be 3f a2 89 3e 8b 18 00 3f 23 15 7f be
       -0.4792798 0.26881596 0.5003745 -0.24910407
000340 29 3e de be 33 77 22 3e 63 fb 95 3e 2a 91 85 be
       -0.434068 0.15865783 0.29293355 -0.26087314
000350 4a e7 5a 3e 63 54 17 be dc 8f a7 3e 82 79 04 3e
       0.21377292 -0.14778285 0.32726943 0.12936977
000360 90 f8 9e be d6 71 50 be a8 de 40 3e 57 dd ac be
       -0.31049013 -0.20355925 0.18834937 -0.3376262
000370 7c 63 2a 3d 32 4a be bd d8 1c 0a 3f ee e7 e5 3d
       0.041598782 -0.092914954 0.5395026 0.11225878
000380 4d 4e a5 3d 9a 96 7c be 87 2d 15 3f d9 0e b0 3e
       0.08071575 -0.24666825 0.58272594 0.34386328
000390 24 11 b6 3d 99 ab d0 be 2f b8 8b 3d d7 ee 88 be
       0.08889988 -0.4075592 0.068222396 -0.2674472
0003a0 4e a6 04 3e 1b 3c 98 be a7 c5 1e 3e b4 21 96 3e
       0.12954065 -0.29733357 0.15505086 0.29322588
0003b0 17 8e 5d 3d 5d c7 55 be 3f 1e 87 be 21 3a a0 bd
       0.054090586 -0.20876832 -0.26390263 -0.07823587
0003c0 7c 62 9a bd b3 a2 dd 3d 64 df b5 bd 5d 1f 7b bd
       -0.07538316 0.10822048 -0.08880499 -0.061309207
0003d0 2d c2 8a bd ba 39 69 be b3 04 c4 bd 72 13 af 3b
       -0.06775317 -0.22775927 -0.09571209 0.0053428942
0003e0 fd 6b 87 3c 36 a4 79 3e f6 97 85 3d c2 79 36 3e
       0.016530985 0.24379048 0.06523125 0.17819884
0003f0 69 ed 07 be e8 d0 19 3f de 12 b3 be 98 53 01 3e
       -0.13274159 0.6008439 -0.34975332 0.12629545

bn1.running_var f4 [256]
000000 ef c9 c9 3e 7d d8 de 3e 39 15 b0 3e 8d 84 15 3f
       0.39411876 0.43524542 0.34391192 0.5840538
000010 a0 ef 80 3e d8 82 a6 3e 3a 6e a3 3e 0e 20 8e 3e
       0.2518282 0.325217 0.31920034 0.2775883
000020 e4 c1 ab 3e 09 ac b5 3e b5 b7 ab 3e 8b 61 bb 3e
       0.33546364 0.35482815 0.33538595 0.36597857
000030 ae 5c 4c 3e 4e 6a c8 3e bf 72 68 3e 1e f1 de 3e
       0.1995723 0.39143604 0.22700022 0.43543333
000040 e6 8a a2 3e 3c e5 b2 3e a0 dd b7 3e 2c e9 89 3e
       0.31746596 0.34940517 0.35911274 0.2693571
000050 ac 87 da 3e 66 34 b1 3e c3 f4 93 3e 62 ba 9b 3e
       0.42681634 0.3461029 0.28897676 0.30415636
000060 0c 83 94 3e 37 2d 95 3e 1f 57 9a 3e 15 bd dc 3e
       0.2900623 0.2913606 0.30144593 0.43113008
000070 96 01 a2 3e 36 36 b1 3e 5e b3 8c 3e a4 c6 b8 3e
       0.31641835 0.34611672 0.27480596 0.3608905
000080 5c c6 82 3e 01 3a 9a 3e 46 2c d0 3e a5 51 80 3e
       0.2554196 0.30122378 0.40658778 0.2506229
000090 b5 44 c9 3e 34 11 95 3e d3 37 a5 3e 00 16 aa 3e
       0.39310232 0.29114687 0.32269153 0.3321991
0000a0 9b 68 9f 3e eb cc 97 3e cb 26 58 3e a2 65 ab 3e
       0.31134495 0.29648528 0.21108548 0.33475977
0000b0 53 c2 b9 3e 6d a0 ae 3e c9 73 ce 3e d6 be 9b 3e
       0.3628107 0.3410677 0.40322712 0.30419034
0000c0 e7 47 8c 3e 60 ff b5 3e d8 02 8f 3e 5c ae 86 3e
       0.27398607 0.35546398 0.27931857 0.263049
0000d0 44 59 6e 3e a3 82 9c 3e f7 14 82 3e 2b 1b a3 3e
       0.2327624 0.30568418 0.2540662 0.31856665
0000e0 d6 2f 08 3f d1 45 a5 3e 50 50 e6 3e 10 93 92 3e
       0.5319799 0.32279828 0.4498315 0.28627825
0000f0 ca 39 95 3e 3f c3 85 3e 22 fa 8a 3e 69 21 94 3e
       0.29145652 0.26125523 0.2714396 0.2893174
000100 0f 9d db 3e e5 80 72 3e 4d fc 7c 3e e5 c5 cb 3e
       0.42893264 0.23681982 0.2470562 0.3979942
000110 b9 ad cd 3e df 99 c5 3e 83 02 7f 3e 2a f6 84 3e
       0.40171602 0.38593957 0.24903302 0.25969058
000120 74 93 84 3e 52 6a c3 3e 6d 77 b0 3e 3e 34 92 3e
       0.25893748 0.38167053 0.34466115 0.28555483
000130 c8 f1 7d 3e 63 2f 8f 3e 22 97 d5 3e 80 07 a6 3e
       0.24799263 0.2796584 0.41716868 0.32427597
000140 2b bf 9d 3e c8 cd 83 3e 98 d1 4a 3e 3a 19 91 3e
       0.30809912 0.25742936 0.19806516 0.2833956
000150 06 33 a6 3e 15 22 b0 3e 26 6f a8 3e 84 68 b7 3e
       0.32460803 0.34401003 0.328973 0.35821927
000160 e0 6c ad 3e ea 15 9d 3e 49 e6 92 3e a0 6e bd 3e
       0.33872128 0.30680782 0.2869132 0.36998463
000170 e8 c0 b0 3e db 50 d9 3e c8 cd ec 3e b2 de be 3e
       0.34522176 0.424445 0.4625075 0.37279278
000180 dd 70 94 3e 47 c4 76 3e 81 ca b1 3e 42 c6 99 3e
       0.28992358 0.24098311 0.3472481 0.3003407
000190 76 44 a5 3e 2a e4 b5 3e 4c 14 9e 3e 01 92 7f 3e
       0.32278794 0.35525638 0.3087486 0.2495804
0001a0 a7 8b a3 3e 84 53 a6 3e 65 41 9e 3e 66 3e 99 3e
       0.31942484 0.32485592 0.30909267 0.2993042
0001b0 d5 50 9c 3e 2d a4 f7 3e 63 51 a6 3e 78 95 75 3e
       0.3053042 0.48367444 0.32483968 0.23982799
0001c0 18 22 72 3e 8a bc c0 3e 35 c3 94 3e e1 79 a1 3e
       0.23645818 0.37643844 0.2905518 0.315383
0001d0 c9 9a c6 3e 1f 2d 84 3e 71 00 84 3e c9 e1 aa 3e
       0.38789967 0.25815675 0.25781587 0.33375385
0001e0 b8 54 62 3e c1 9f cc 3e 81 80 cf 3e 99 a8 a0 3e
       0.2210263 0.39965633 0.40527728 0.3137863
0001f0 0e 5a c3 3e 77 ca b3 3e 28 8b d5 3e 08 00 86 3e
       0.38154644 0.35115406 0.4170773 0.261719
000200 e0 16 6c 3e d8 36 aa 3e 87 d7 9d 3e c3 f9 b0 3e
       0.23055601 0.33244967 0.30828497 0.34565553
000210 23 c9 ea 3e 6a 58 53 3e 38 74 8f 3e dc 01 b2 3e
       0.4585658 0.20639196 0.28018355 0.34767044
000220 9c f3 04 3f bc 8e 90 3e a1 0e 86 3e c8 58 af 3e
       0.5193422 0.28233898 0.26183036 0.34247422
000230 3e 10 b5 3e 35 d3 9d 3e 40 4d 85 3e bb 88 97 3e
       0.35363954 0.308252 0.260355 0.29596505
000240 a2 54 73 3e 43 a8 bc 3e 23 ec 92 3e ad 46 8b 3e
       0.23762754 0.36847124 0.28695783 0.2720236
000250 2f 8b 93 3e 5d e6 9b 3e 47 3f bf 3e 1b 1c a0 3e
       0.28817126 0.3044919 0.37352964 0.31271443
000260 c4 26 91 3e 29 b6 9f 3e b9 1d bb 3e 4f 1a e4 3e
       0.28349888 0.31193665 0.36546114 0.44551322
000270 a1 94 61 3e c6 29 99 3e 33 4c 89 3e 93 1a 82 3e
       0.22029354 0.29914683 0.26815948 0.254109
000280 0e 2d a8 3e e7 6f 61 3e a1 c7 a0 3e 7d c1 b6 3e
       0.32846874 0.22015344 0.31402305 0.35694495
000290 7c 55 ad 3e 77 11 82 3e 8d 89 d2 3e 44 a2 74 3e
       0.33854282 0.2540395 0.41120568 0.23890024
0002a0 26 c1 c0 3e 9a 12 e5 3e 93 57 b9 3e b7 7f b6 3e
       0.3764736 0.44740754 0.36199626 0.35644314
0002b0 f3 5b 89 3e 98 1b b7 3e cb 5f 82 3e f4 68 92 3e
       0.26827964 0.3576324 0.2546371 0.28595698
0002c0 05 5b c4 3e e2 99 d4 3e 98 20 82 3e b8 4b ad 3e
       0.38350692 0.41523653 0.25415492 0.3384683
0002d0 27 ad ba 3e ed 8c ba 3e 2b 6c e0 3e 22 ed 94 3e
       0.3646023 0.36435643 0.43832526 0.29087168
0002e0 18 20 b9 3e 1b 5b e7 3e 7b 18 9b 3e 75 95 7b 3e
       0.36157298 0.45186695 0.30292115 0.24568732
0002f0 c1 12 5f 3e 8b 11 92 3e 11 63 95 3e 01 29 db 3e
       0.21784498 0.2852901 0.29177144 0.4280472
000300 99 74 99 3e a9 04 91 3e ee 4a 78 3e a2 6f 94 3e
       0.2997177 0.28323868 0.24247333 0.2899142
000310 7f ad d3 3e a7 7d 73 3e 7a 70 b6 3e 08 a6 c2 3e
       0.41343305 0.23778401 0.35632688 0.38017297
000320 76 09 87 3e b2 bf 1f 3f aa 64 8a 3e 37 98 99 3e
       0.26374406 0.6240188 0.27029926 0.29998943
000330 ed f2 b9 3e 7d 5e 98 3e ed 93 70 3e b4 4e a1 3e
       0.3631815 0.2975959 0.23493929 0.31505358
000340 29 58 9a 3e 93 f1 87 3e ca 73 92 3e 8c ff 91 3e
       0.30145386 0.26551494 0.28603965 0.2851528
000350 3c f4 b6 3e 27 76 95 3e c3 5d a1 3e ee 2a b4 3e
       0.3573321 0.29191706 0.31516847 0.35189003
000360 6b 87 95 3e 70 80 c1 3e 86 46 87 3e ad 31 bd 3e
       0.29204878 0.37793303 0.26420993 0.36951962
000370 49 e8 9a 3e b1 fb 9f 3e 95 7f 26 3f 52 8e a9 3e
       0.30255345 0.31246713 0.65038425 0.33116394
000380 7e f6 0a 3f a8 38 ca 3e 70 41 03 3f 3c e0 94 3e
       0.5428237 0.3949635 0.51271725 0.29077327
000390 da dd 95 3e 75 8a 85 3e f6 51 ff 3e 11 3f 17 3f
       0.29270822 0.26082197 0.4986722 0.59080607
0003a0 39 0c a5 3e a4 3f a5 3e 24 b0 d1 3e 7d 9c 9c 3e
       0.32235888 0.32275116 0.40954697 0.3058814
0003b0 dd dd b1 3e 47 18 ca 3e d3 7e 7d 3e 7a 57 7e 3e
       0.3473958 0.39471647 0.24755411 0.24838057
0003c0 8c bd 95 3e a5 f9 b9 3e 23 0c c4 3e 92 16 8d 3e
       0.29246175 0.36323276 0.3829051 0.27556282
0003d0 2e 3e ac 3e d9 76 8c 3e 29 99 9b 3e 54 48 e5 3e
       0.3364119 0.27434424 0.3039029 0.44781744
0003e0 ef e9 95 3e 5d 08 c4 3e 53 08 a4 3e a4 f5 68 3e
       0.2928004 0.3828763 0.320376 0.22749954
0003f0 ea bd 87 3e b0 78 74 3e 28 1c 87 3e 79 64 af 3e
       0.2651208 0.23874164 0.2638867 0.34256342

fc2.weight f4 [128, 256]
000000 fe 47 a8 3c c9 02 8a bc 5f c7 66 bd 24 1e 76 3d
       0.020542141 -0.016847031 -0.05634248 0.060087338
000010 93 a0 54 3d d1 78 1c 3d 46 20 54 3c cb de 5b 3d
       0.051910948 0.038201157 0.012947148 0.05367927
000020 11 e5 bb 3b 1f 75 20 bd 2a 59 27 3d 86 d1 10 bd
       0.005734094 -0.039174195 0.040856518 -0.035356067
000030 40 18 50 3c 08 bd 97 bd 5c e9 c7 bb fc 13 ba 3c
       0.012701094 -0.07409102 -0.0061008167 0.022714607
000040 91 c3 19 3d fd c7 a9 3d e2 5c 4e bc 78 8a 18 bd
       0.037540022 0.08290098 -0.012595387 -0.03724143
000050 c5 ca 42 bc 49 1e d9 3c 2f b7 eb bc 0e 14 cb 3d
       -0.011889164 0.026503699 -0.028773872 0.099159345
000060 53 e3 0b 3c aa e6 af 3d 26 63 82 3d f4 61 2b 3d
       0.008538085 0.085889176 0.06366567 0.041841462
000070 3e 15 6a 3c 53 30 70 3d 0f 4d 8d bc cd e4 b4 3c
       0.014287291 0.058639836 -0.017248658 0.022081757
000080 f0 40 17 bd a0 c4 38 bd 2a 02 cc 3a bc 76 d6 bd
       -0.036927164 -0.04510939 0.001556461 -0.104718655
000090 96 c9 9b 3d 11 d9 9d 3c 24 93 15 3c a2 62 9e bc
       0.07606809 0.019268544 0.009129319 -0.019334141
0000a0 56 8e 49 bd 37 41 ba 3c 98 88 8f 3c 8a 77 a5 3b
       -0.049208008 0.022736175 0.017521188 0.0050496506
0000b0 91 79 88 3a fe 19 b4 3d 60 e6 20 bb 05 e3 25 3c
       0.0010412206 0.0879402 -0.0024551377 0.010124926
0000c0 1b 7d 00 3d b5 74 83 3d 3b 2c bd 3d 3d 50 3c 3d
       0.03136931 0.064187445 0.09236952 0.04597496
0000d0 d3 15 27 3d d1 96 af bd 4b 72 f2 3c 4b 9e 99 3d
       0.040792298 -0.08573688 0.029595515 0.07500895
0000e0 ac 3f 6f bd 9d 5c 36 bc 00 96 93 bd 8e df 86 3c
       -0.05841033 -0.011130479 -0.072063446 0.016464021
0000f0 1f 68 c3 3b 31 f6 81 bc 6f 67 0c bd 88 0f 37 3d
       0.00596334 -0.015864464 -0.03427833 0.044692546
000100 9b 69 52 3d 8a a4 10 bc 88 12 66 bb 38 bf a0 bc
       0.051370244 -0.008828292 -0.003510626 -0.01962243
000110 42 a3 21 3d 7c 4b a8 3c 60 52 55 bd 19 f2 24 3d
       0.039462335 0.020543806 -0.052080512 0.040269945
000120 2a 4f 9a bd e2 69 2f 3d ce a5 45 3d b5 7c ed bc
       -0.075346306 0.042825587 0.048253827 -0.028990129
000130 6f 75 88 3d 9f 62 1c bd 27 b0 2b 3d 7e 9a 0b 3e
       0.06663024 -0.03817999 0.04191604 0.13633153
000140 b2 8c ce 3c c1 af c1 3d 54 e3 54 3d ab 49 e9 bc
       0.025213573 0.094573505 0.05197461 -0.02847751
000150 95 07 85 bd 06 f9 84 ba 1e 21 41 3b c0 a2 0a be
       -0.06495587 -0.0010145016 0.0029469202 -0.13538647
000160 20 e9 e3 bd a5 73 2d 3d 4e 32 95 bc 22 6a ba ba
       -0.111284494 0.042346615 -0.018212464 -0.0014222304
000170 57 a3 cc 3d d1 c8 0f 3c df 9e e8 3c f5 1e df 3c
       0.09992092 0.008775906 0.028396068 0.027236441
000180 e1 5e 51 3d 7e 15 40 3b 4c 06 f4 3b 4e 3b 83 3d
       0.051115874 0.0029309685 0.0074470397 0.06407796
000190 ef 65 4a bc e5 a7 16 bd 40 71 1b bd 63 4c 46 3d
       -0.012353404 -0.03678121 -0.0379498 0.04841269
0001a0 c5 59 cc bd fe 17 84 3c f3 28 61 3d 08 76 07 bd
       -0.0997806 0.016124722 0.054970693 -0.033071548
0001b0 5c b6 cd bd ce 02 15 bc 9c e2 55 bd c9 31 c0 bb
       -0.10044548 -0.009094907 -0.052218065 -0.00586531
0001c0 4a 85 8c 3d 19 23 5f 3d e1 15 81 3d 9c 73 9a bc
       0.0686136 0.05447683 0.06303001 -0.018853955
0001d0 55 6c 40 3d 4d 30 21 bd ec a0 14 3d 98 68 d9 bd
       0.046978313 -0.039352704 0.03628628 -0.10615653
0001e0 1c 2b 04 3d 7a d0 1d bd a4 8f dd bc d8 5e f2 3b
       0.032267675 -0.038528897 -0.027046032 0.00739656
0001f0 9d 4c bf 3c ce f1 e7 bc 64 06 04 3d bd 79 0d 3c
       0.023351962 -0.028313544 0.032232657 0.008634982
000200 33 0b 2a 3d b1 79 c6 bc c6 c5 ca 3a 06 53 1b bd
       0.041514587 -0.024227949 0.0015470318 -0.037920974
000210 4d ae d4 3d bf be 33 3c 95 f2 ee bd 09 77 5a bd
       0.10384808 0.01097077 -0.116673626 -0.053336177
000220 b2 1f 0e bd 50 6c 8b 3c 13 fb 93 bc 38 91 7d bd
       -0.034698196 0.01701942 -0.018064057 -0.06190607
000230 71 d5 7a 3d 2f 2a f3 bb 1a b3 9b 3a 54 48 af 3a
       0.06123871 -0.0074208 0.0011878938 0.0013372996
000240 70 3c a2 bc 94 ca 7b bd 14 a0 d8 bc d4 a8 d4 3c
       -0.01980421 -0.06147249 -0.026443519 0.02595941
000250 1e 64 0f 3e 90 f1 25 bc 85 91 28 bd c3 46 87 3d
       0.14003035 -0.010128394 -0.041154403 0.066052936
000260 48 58 ec bc 64 ed c4 3a b5 ba 78 bd 96 55 6e 3d
       -0.02885069 0.0015024361 -0.060724933 0.05818709
000270 fe 0d 75 3d 5a 3a a4 bd 6a 2e 09 3d 58 9d 2e bd
       0.059827797 -0.08018942 0.03349153 -0.042630523
000280 24 f5 fa 3b 60 b9 88 bd d9 d8 ad 3d 7a 90 cc 3c
       0.0076586176 -0.066759825 0.08488626 0.024971236
000290 4a 52 62 bd 8d 32 41 bc 01 51 01 bd 75 87 3e 3d
       -0.05525426 -0.011791837 -0.031571392 0.0465159
0002a0 99 2e 98 3d cd dd a9 bc e7 0d b4 3c 17 4f ad ba
       0.07430763 -0.020735646 0.021979285 -0.0013222423
0002b0 eb e3 84 3c 5b 54 4c 3d b1 db f4 3c 7a 39 50 3d
       0.016221961 0.049885135 0.029889913 0.050836064
0002c0 15 f1 82 bd ae d0 47 bd 6c ac 60 3d 2f 65 f8 3c
       -0.06393639 -0.048782997 0.054851934 0.030321686
0002d0 01 da 12 3d e4 75 a8 bc 47 a4 ab bc 57 4d 42 3d
       0.035852436 -0.020564027 -0.020952357 0.04743704
0002e0 00 77 73 3d fb 04 89 bd 43 34 5f 3d f4 a6 4e 3d
       0.05943966 -0.06690403 0.0544932 0.050452188
0002f0 de ea 35 3d fe f5 af 3d 0c c0 bd 3d 1f c4 90 3d
       0.04441344 0.08591841 0.09265146 0.07068657
000300 83 8b 98 3d f4 41 54 bd d7 c8 66 3c 5c 9b 2f bd
       0.07448485 -0.05182071 0.01408597 -0.04287277
000310 4e 9b a1 3c 3a 69 2b 3c 06 2a ce 3d e1 d8 3a bc
       0.019727375 0.0104621 0.10066609 -0.011404247
000320 2f 81 1c 3c ac 6c c5 3d 34 ae 9d bd b3 17 76 bd
       0.009552284 0.09639868 -0.07699242 -0.060081195
000330 2e 68 0c be f5 fa 48 3c 5f b8 66 3c a7 f9 be bd
       -0.13711616 0.012266864 0.014082043 -0.09324961
000340 5a ac a0 bc 72 16 df 3d 4c 30 71 3c b4 9c 06 be
       -0.019613434 0.10892953 0.0147209875 -0.13145715
000350 4d fa ed 3c 14 4b c0 bc e1 b7 c6 3c 68 77 6d 3d
       0.029050017 -0.0234733 0.024257602 0.057975203
000360 ba 59 3c bd 04 3c 89 bc e0 cd 4a 3d f5 50 85 3d
       -0.045984007 -0.01675225 0.049512744 0.06509582
000370 dd c2 1c 3d fe 22 cf 3b 38 d3 55 3b 97 50 fc 3c
       0.038271774 0.00632131 0.0032627117 0.030800147
000380 89 df 37 3c f8 37 3d bc 28 a4 3a 3d 9f 86 9a bc
       0.0112227285 -0.0115489885 0.045566708 -0.01886302
000390 f9 90 fc 3a 35 04 f9 bd 4a e8 92 bc b3 9f aa 3d
       0.001926928 -0.121590056 -0.01793303 0.083312415
0003a0 00 88 c0 3d 69 6b 8a 3d ad 08 31 bd 25 17 6f 3d
       0.0940094 0.06758768 -0.043221164 0.05837168
0003b0 87 00 c1 bc 4a 9c 2d bd 82 17 c8 ba 80 4e 3e 3b
       -0.023559822 -0.042385377 -0.0015265795 0.002903849
0003c0 4c 6c 9d 3c ba 5c bb bc 08 d9 9e 3c 8b d9 c2 bd
       0.019216679 -0.022871364 0.019390598 -0.09514149
0003d0 0d 83 46 3d ed d5 ad 3d c3 30 cd bc 00 0c d2 3c
       0.048464824 0.08488069 -0.025047665 0.025640488
0003e0 74 cc 44 bd 3e 8e 18 3e c2 57 f8 3b ff 7d 2a 3d
       -0.048046544 0.14898011 0.007578821 0.041624065
0003f0 19 33 58 3b b6 dc 68 bc 40 c0 a4 bd 21 95 cb ba
       0.003298944 -0.014212778 -0.08044481 -0.0015532115
