backend/src/bert/models/sinks.pt (torch, 990198 bytes, 20 tensors)

weight f4 [256, 768]
00000000: 6a01 f43c d548 9d3c 6a83 8dbc 3ef8 c3bc
00000010: a274 a3bb 03a2 12bd b5a2 db3c e7bd c7bc
00000020: 8bca ca3c c72a d8bb f510 3b3c 6c0b a63b
00000030: caeb 323c 4e80 b33c 117e 90bb 3948 bbbc
00000040: 54d1 553c ad46 0c3c c0fe 543c 3c40 8f3c
00000050: d276 043d 8d46 6d3c 2e61 56bc 379d af3c
00000060: 6838 a43b e147 f2bc 5d0b 633c 46a5 cdbc
00000070: a229 52bc fdf0 8e3b fded a3bc 91ca b4bc
00000080: e43f dbbb c2f7 4bb9 e121 df3b 360f c2bc
00000090: 0f18 a2bc 62ec 06bc 672e 15bc 8a09 ddbc
000000a0: 31af 7abb 9aaf 1a3c 5e20 a8bb 50e4 ce3c
000000b0: ffeb acbc cf5f e1bc 14e1 03bc e1ed b93c
000000c0: 3afd f43c 3f4c 143b feed 11bc 9f7b 8a3c
000000d0: 7bfd 9f3b 6ff1 333c 6a77 aebc 2ebc a5bc
000000e0: a8c3 0e3d e401 c2bc 38ed 15bd 0375 b3bc
000000f0: 6c58 10bc 565a d83b 414f a3bc 7d46 2f3d
00000100: c968 723c c3b4 ba3c 9ddc e43a a3a3 053d
00000110: 8710 27bd 8386 05bd 5025 d3bc 1df3 19bc
00000120: 67b9 77bb ffed b13c 3355 e4bc b3d8 bb3b
00000130: 8467 90bc 19a4 d93c 2caa 163a a7ed 543c
00000140: cb83 df3c 857b 243c 0ba4 ca3c ffdb 1dbc
00000150: 92fb 5c3b 27af a3bc 342b 3fbc a07e ac3c
00000160: 8d2c 443c 9967 1e3d 6df5 d1bc aa79 ed3c
00000170: 1b3a b53c 996b b1bc d512 3a3c a1b9 843c
00000180: f5bf 5cbc 030c 6a3c 8bb8 a9bc 869d 86bc
00000190: 12c6 d1bb 94e3 da3c 887c 1cbb 832c 093d
000001a0: 1867 79bc ca6a ee3c 0368 f33a 8f63 bd3c
000001b0: 58df dc3c ea16 8abb 75b0 08bd fb6c 34bc
000001c0: bfb9 eb3c 1985 d9bb 3303 073d f6c3 5638
000001d0: 1893 473c c074 fe3c 8e8c d7bc c6e0 b43c
000001e0: d248 0dbb c9f4 4e3c f369 a5bc 7ca3 e43b
000001f0: 241e 83bc f12e 9cbc e2e2 e83c 3853 783c
00000200: 4caf 30bd 9cfa 163c 0a1a 003d 0d9a 8b3c
00000210: 50a0 a53c bc2d df3c 9d54 89bc 1a01 f83c
00000220: 5f9e 173c 1406 973b 45ca 84bc 9267 1cbb
00000230: 7436 ed3c 96c1 71bc 24d2 da3c 2479 423c
00000240: b1ae 0a3d fe6b 2abd 7b2f ee3b 2a8c 3fbc
00000250: f41a 09bd d6bb e5bc 1315 963b 6ef2 7fbc
00000260: f91a 123d 2e79 70bc 44c2 22bc 2583 013d
00000270: 5a1b c23c 1701 d43c dc60 9d3c 1d67 c5bc
00000280: b222 773b e11f 463c f3f7 1b3d 62b8 8a3c
00000290: cb70 f83b b4ab d9bc e610 e63c 971a 193d
000002a0: f3de 553c e4ab fa3c 383b ef3c 5a8c 1fbd
000002b0: 7331 403c 4a2c 083d a4cb 30bc a20c a8bc
000002c0: 1cf8 96bc 7a91 fc3c 4688 0cbd b396 893c
000002d0: a3f4 10bc c8ea e7bc 5551 993c 215e aebc
000002e0: 7e02 5dbc f743 01bd e146 573c 432c ba3c
000002f0: 3e7d 553b 863a f2bb 90d3 083d 0c1f 8dbc
00000300: e296 dfbc 2aae e2bc 07fa 96bc 08ef 56bc
00000310: 8ce5 1dbc ddcd d7bc 3728 9d3c 6fcd 0a3d
00000320: 2d0c 933c cbed 97bc ed5d d0bc bd14 09bb
00000330: c9e1 85bc cd5a f63c 0be1 56bc 54e4 803b
00000340: 2c74 263b 55c2 903c 3bb3 bdba 48b2 f63c
00000350: 24fe 803b f6f4 4e3b 125f 70bc f37f b23b
00000360: 7b93 d0bb 6ab1 6f3c a09b f1bb a467 e6bc
00000370: cb87 4fbc 4572 3fbc ea4b 8ebc 1b86 dcbc
00000380: 4bdd 873c fd40 a23b d3ef 79bc d814 9b3c
00000390: cd5b fdbb 91bc fb3c 3566 77bc 8c42 77bb
000003a0: 9491 e53c 10d6 e7bc c509 e83c f768 0c3d
000003b0: dc3f 72bc 8958 23bc cbed c03b 30f2 06bd
000003c0: a646 23bb c994 0e3d 259c 8b3c a943 8d3c
000003d0: dade 7f3c 0932 b0bc fc5c 2dbc 4183 033d
000003e0: 4829 24bd 2434 033d 2d1c 113b 0bb1 9cbb
000003f0: e6ec 83bc a1eb e13b e349 afbb 53b9 ea3c
0.02978583 0.019199768 -0.017274577 -0.023922082 -0.004988269 -0.035799038 0.026810983 -0.024382545
0.024754783 -0.0065968963 0.011417617 0.0050672796 0.010920474 0.021911766 -0.0044095595 -0.022861587
0.013050396 0.008561772 0.01300019 0.017486684 0.03233988 0.014482153 -0.013084693 0.02143727
0.005011607 -0.02957529 0.01385769 -0.025103223 -0.012827309 0.004362224 -0.020010943 -0.022069247
-0.006690966 -0.00019451886 0.0068094586 -0.023688894 -0.019786863 -0.008235069 -0.009105301 -0.026982088
-0.0038251395 0.009441281 -0.0051308116 0.025255352 -0.021108625 -0.027511505 -0.008049268 0.022696437
0.029905904 0.0022628454 -0.008906839 0.01690465 0.004882512 0.010982855 -0.021297175 -0.020231333
0.03485456 -0.023682542 -0.036603183 -0.021906381 -0.008810144 0.0066025658 -0.019935252 0.042791832
0.014795491 0.022791272 0.0017460767 0.03262676 -0.040787246 -0.032598983 -0.025774628 -0.009396342
-0.0037799717 0.02171993 -0.027872657 0.0057326197 -0.017627485 0.026567506 0.00057474035 0.012996114
0.027284523 0.010039215 0.024736425 -0.009634971 0.0033719284 -0.01998098 -0.011668015 0.021056473
0.011973512 0.038673017 -0.025629723 0.028988678 0.022122433 -0.021657752 0.011357029 0.016201796
-0.0134735005 0.01428509 -0.02071788 -0.016432535 -0.0064017856 0.026719846 -0.0023877937 0.033489715
-0.015222333 0.029103655 0.0018570427 0.023118762 0.026961967 -0.0042141574 -0.033371408 -0.011012311
0.028775094 -0.006638181 0.032962035 5.120408e-05 0.012181066 0.03106153 -0.026312139 0.022079837
-0.0021558297 0.0126316035 -0.020192122 0.0069774967 -0.016005583 -0.019065352 0.028428499 0.01515656
-0.043135926 0.009215023 0.031274833 0.01704123 0.020218045 0.027243488 -0.01676398 0.030273963
0.009254067 0.004608879 -0.01620973 -0.0023865444 0.02895663 -0.014755627 0.026711531 0.0118697025
0.033858005 -0.041606896 0.0072688437 -0.011691133 -0.03347297 -0.028043669 0.004580149 -0.015621765
0.035670254 -0.014677329 -0.009934012 0.03161921 0.023694683 0.025879426 0.019211225 -0.02409702
0.003770989 0.012092561 0.03807826 0.016933624 0.0075818053 -0.026571132 0.02808423 0.037378874
0.0130536435 0.030599542 0.029203042 -0.03895221 0.01173054 0.033245362 -0.010790739 -0.020513836
-0.018428855 0.030831087 -0.034309648 0.016795492 -0.008847388 -0.028310195 0.01871554 -0.021285119
-0.013489364 -0.031558957 0.013139457 0.022726184 0.003257587 -0.0073922304 0.033404887 -0.017226718
-0.027293626 -0.027670939 -0.01842977 -0.013118513 -0.009637248 -0.02634328 0.019184215 0.033887323
0.017950142 -0.018546006 -0.025435412 -0.0020916902 -0.016343014 0.030072594 -0.013115178 0.003933469
0.0025398834 0.01767079 -0.001447297 0.030114308 0.003936546 0.0031579114 -0.014671104 0.0054473816
-0.0063652373 0.014629701 -0.0073732883 -0.028125592 -0.012666653 -0.011684959 -0.017370183 -0.026919415
0.016585013 0.004951595 -0.015254932 0.018930838 -0.007731891 0.030729564 -0.015100052 -0.0037728874
0.028023519 -0.028300315 0.028324971 0.03427979 -0.014785733 -0.009969839 0.005887722 -0.03294581
-0.0024913936 0.03480986 0.017042229 0.017244177 0.015617097 -0.021508234 -0.010581251 0.032107595
-0.04007843 0.032032147 0.0022142038 -0.0047818474 -0.016104173 0.006894544 -0.005349384 0.028652823

bias f4 [256]
00000000: 4a41 2636 0d5a dfb5 3d86 8b36 1105 3a33
00000010: fb2a 3535 976f 74b5 7523 adb6 3d9b dfb4
00000020: 2f21 5cb5 eced b935 2832 5736 dce7 db35
00000030: 8127 a134 f1ae 89b6 6c31 3536 9192 a935
00000040: 953d 9e35 6387 9e36 2c2f a434 df8f cab5
00000050: ace3 b8b5 98bc 1435 7bae a135 76ac f535
00000060: 8e7e 18b6 15f3 bc36 2ace 2d34 e485 6136
00000070: f374 f736 e850 d0b5 4c49 61b6 66bb 0136
00000080: 6528 da35 4365 93b5 c329 05b3 2707 3a36
00000090: 5fda 0935 231a 81b5 6843 abb4 28be db36
000000a0: 29e0 f135 9537 d434 8366 6535 fd68 1536
000000b0: 21fb 2e35 8f54 88b5 4b5c 6336 9624 fbb5
000000c0: ee85 02b6 0cb1 3c36 8a92 df35 db9e 4535
000000d0: e3c6 a0b5 4ae3 a335 df82 5ab6 3ec7 bb35
000000e0: 3b51 b035 b89f 2ab6 f435 d836 da58 2335
000000f0: 31da 4ab6 a433 5636 d217 b8b5 fe06 2435
00000100: c7f4 f034 99d8 d236 78db a036 943e 4db6
00000110: f75e 9335 ebfa 07b7 07db 9ab5 83eb 2036
00000120: 9439 82b5 a3f3 4236 9090 2cb5 cd03 7cb6
00000130: a147 93b6 a31d ca36 79e8 27b5 fb5e 95b6
00000140: 63e6 8135 44d3 a336 1da2 10b5 0398 f234
00000150: 5043 6a32 ae3e 2c36 2fb1 dbb5 8452 17b6
00000160: 7ee7 3636 0007 2036 0839 1337 7649 3535
00000170: 1c56 1eb7 68bc 1636 083c 14b7 9ba6 94b6
00000180: b7ee 5335 c4c5 74b6 872e 0235 16a7 d5b6
00000190: 4c51 2836 1ca3 0d36 2798 2ab6 a8ae 3536
000001a0: 2b3d f735 d0d5 0e37 be03 1a36 56ca 2137
000001b0: 294e f5b5 f2c1 68b6 8a32 d1b4 245f 55b6
000001c0: 9b00 ea36 5365 89b7 b5ba c0b5 2316 8236
000001d0: d6cb 9ab6 f288 33b6 0793 a2b6 dad7 b434
000001e0: ac67 ffb4 d667 3735 d40c c9b5 3626 bbb4
000001f0: 3800 1235 ad87 cfb4 069a c235 e17b 0e35
00000200: b9f1 81b6 f82c 4fb5 0116 29b5 4646 40b7
00000210: bf63 8335 577f 38b5 edaa e4b6 c8fc 51b6
00000220: dc27 0b36 4199 82b5 e1c7 69b6 7dc5 2a34
00000230: e2e3 edb3 efd5 2635 624d 0935 d57e 1db6
00000240: ef68 5336 33c9 a336 052a 9e35 c266 6a36
00000250: 3b76 f634 8e95 d8b5 45eb 3db6 d5e5 3e33
00000260: a0eb d7b5 ac63 0136 f0a6 a335 e84c e836
00000270: 1d1b 9035 1bab e8b3 e6bc bcb4 0f89 8736
00000280: ea5a 5b36 d5b4 fc35 e991 b6b5 7e39 4bb3
00000290: f299 1136 51bf b0b4 5029 ecb6 cf6f 78b6
000002a0: a570 4ab6 830a c7b6 2593 5335 5ff2 4a34
000002b0: b92e 1e36 3ecb 0b35 9f65 ef35 71fb e1b5
000002c0: 3bc2 e8b4 facb 8cb7 0086 feb2 9766 9436
000002d0: c153 7536 dca0 6fb6 b04d e1b4 c622 3fb5
000002e0: fe6a 00b3 b60b 8835 ee1c 18b7 6e6d 9fb5
000002f0: f2d0 a235 60b9 8b35 6d2c b736 3099 0436
00000300: 360f aab5 b3c3 51b6 1576 8536 e417 3b36
00000310: f1d3 82b3 616b 8bb5 621c 3835 513a 7cb6
00000320: 6a28 4435 b5db 1a36 0afc 83b5 8466 9036
00000330: e58e f0b6 97dc dcb5 d69e 5b35 962f 7735
00000340: 6e50 6eb6 38f7 32b5 8804 81b4 26a9 6635
00000350: 14b4 5436 8bc5 2f36 3bf0 a3b6 e45c 8db5
00000360: 3f82 2ab5 0799 bc35 ac0b 7335 c24d 5d35
00000370: 2326 e1b5 7fd5 9736 2796 06b7 4266 f635
00000380: 1e09 c1b5 1c61 90b6 3860 9336 f5ea abb5
00000390: 1414 89b5 eff8 d8b5 f6bc 2ab5 2f5a c1b6
000003a0: aa14 f635 5b7f 22b5 c154 e236 6996 09b6
000003b0: 6015 6835 3a0e dfb6 4d27 fe35 4147 0836
000003c0: 0bf5 d135 3d1f a0b5 1c2c c035 a45e 3c35
000003d0: 8e07 8c36 25ad 63b6 9222 83b7 cbc6 7735
000003e0: df41 4a35 545f b735 1812 c136 3918 d6b5
000003f0: 9ff8 34b5 9744 30b6 139a 5035 fda4 d234
2.477393e-06 -1.6641003e-06 4.15815e-06 4.3311108e-08 6.74903e-07 -9.105947e-07 -5.1599295e-06 -4.1649938e-07
-8.2004675e-07 1.3852818e-06 3.2066691e-06 1.6384251e-06 3.001733e-07 -4.103284e-06 2.699987e-06 1.2634138e-06
1.178984e-06 4.724528e-06 3.0581703e-07 -1.5092045e-06 -1.377533e-06 5.5408736e-07 1.2046215e-06 1.8304115e-06
-2.272343e-06 5.631135e-06 1.6186883e-07 3.3605547e-06 7.3747883e-06 -1.5520754e-06 -3.3570277e-06 1.9331578e-06
1.6254022e-06 -1.0981825e-06 -3.1004458e-08 2.7720323e-06 5.135425e-07 -9.618856e-07 -3.1900277e-07 6.5488457e-06
1.8021138e-06 3.9528518e-07 8.545832e-07 2.2263841e-06 6.518549e-07 -1.0157399e-06 3.3879357e-06 -1.8711605e-06
-1.9449467e-06 2.8117238e-06 1.6657443e-06 7.3619384e-07 -1.1978813e-06 1.2210596e-06 -3.2560708e-06 1.3990573e-06
1.3136663e-06 -2.5424943e-06 6.4435826e-06 6.085153e-07 -3.022735e-06 3.1918544e-06 -1.3716001e-06 6.1104936e-07
4.4881583e-07 6.283703e-06 4.793921e-06 -3.0583806e-06 1.0979992e-06 -8.105048e-06 -1.153764e-06 2.3978944e-06
-9.702512e-07 2.9050068e-06 -6.428536e-07 -3.7553139e-06 -4.38928e-06 6.0235193e-06 -6.255064e-07 -4.451603e-06
9.6783e-07 4.882373e-06 -5.3880086e-07 4.5186616e-07 1.3635898e-08 2.5666482e-06 -1.6368339e-06 -2.2548784e-06
2.725486e-06 2.3845932e-06 8.775161e-06 6.7534654e-07 -9.437583e-06 2.2461409e-06 -8.8354645e-06 -4.430139e-06
7.8951e-07 -3.6473948e-06 4.849648e-07 -6.367346e-06 2.5081272e-06 2.110558e-06 -2.5420538e-06 2.7072765e-06
1.8420736e-06 8.513642e-06 2.2949966e-06 9.643458e-06 -1.827667e-06 -3.4683585e-06 -3.8966056e-07 -3.1794852e-06
6.973814e-06 -1.6378855e-05 -1.4359454e-06 3.876879e-06 -4.6132873e-06 -2.6752791e-06 -4.8450925e-06 3.3684665e-07
-4.7572883e-07 6.8323914e-07 -1.49794e-06 -3.4859266e-07 5.4389557e-07 -3.8655472e-07 1.4498953e-06 5.307939e-07
-3.87264e-06 -7.717895e-07 -6.2989426e-07 -1.1460454e-05 9.78929e-07 -6.8730645e-07 -6.814828e-06 -3.1290565e-06
2.0735815e-06 -9.730358e-07 -3.483605e-06 1.590433e-07 -1.1077624e-07 6.2151133e-07 5.1149084e-07 -2.346865e-06
3.150253e-06 4.881201e-06 1.1784147e-06 3.492853e-06 4.5907095e-07 -1.613678e-06 -2.830014e-06 4.4446853e-08
-1.6087324e-06 1.9280515e-06 1.2193032e-06 6.923092e-06 1.0736727e-06 -1.0834466e-07 -3.515517e-07 4.0392692e-06
3.2686462e-06 1.8828092e-06 -1.3602522e-06 -4.731691e-08 2.1696292e-06 -3.2921756e-07 -7.0381575e-06 -3.701996e-06
-3.0165913e-06 -5.931886e-06 7.881775e-07 1.890089e-07 2.357103e-06 5.207729e-07 1.7836463e-06 -1.6836985e-06
-4.335469e-07 -1.6784285e-05 -2.9630428e-08 4.4226867e-06 3.6556596e-06 -3.5707408e-06 -4.196604e-07 -7.1203647e-07
-2.989963e-08 1.0136198e-06 -9.066642e-06 -1.1878271e-06 1.2130752e-06 1.0410258e-06 5.458997e-06 1.97587e-06
-1.2670414e-06 -3.1257339e-06 3.9774554e-06 2.7879078e-06 -6.092149e-08 -1.0387558e-06 6.8586644e-07 -3.758487e-06
7.30745e-07 2.3075675e-06 -9.833614e-07 4.303469e-06 -7.1691925e-06 -1.6455477e-06 8.1814994e-07 9.2083917e-07
-3.551158e-06 -6.666992e-07 -2.403142e-07 8.592782e-07 3.169528e-06 2.6192017e-06 -4.885745e-06 -1.0532353e-06
-6.351947e-07 1.4051628e-06 9.054154e-07 8.244207e-07 -1.6774906e-06 4.525005e-06 -8.0219825e-06 1.8358189e-06
-1.4382274e-06 -4.3028394e-06 4.3921427e-06 -1.2808874e-06 -1.0213139e-06 -1.6165703e-06 -6.360491e-07 -5.762347e-06
1.8334442e-06 -6.053503e-07 6.7451915e-06 -2.050214e-06 8.645784e-07 -6.647574e-06 1.8935913e-06 2.0307054e-06
1.564303e-06 -1.193002e-06 1.4317952e-06 7.017318e-07 4.1732046e-06 -3.392642e-06 -1.5632515e-05 9.230395e-07
7.534672e-07 1.3662307e-06 5.7539546e-06 -1.5951292e-06 -6.7417017e-07 -2.6265968e-06 7.7710246e-07 3.9235593e-07

weight f4 [256]
00000000: 82f0 753f fec1 783f 1fd6 793f 706b 743f
00000010: 1a12 783f d020 713f ecf0 763f 11c8 773f
00000020: 95eb 763f 8ce0 733f c4a4 7c3f 62c1 783f
00000030: 5d05 6e3f 1096 753f 4557 733f e371 743f
00000040: 2dc6 743f 302b 733f 4c16 743f 35d6 703f
00000050: 187f 703f d0e7 713f 64ef 733f 6fe7 753f
00000060: a84c 743f dbff 793f 5261 773f 573a 783f
00000070: a7e1 763f bf7d 703f 3c13 763f 2df3 743f
00000080: 09ef 763f bc53 743f 51f6 773f da72 6f3f
00000090: 1962 763f 9532 753f 7e16 6f3f cba9 7b3f
000000a0: 14e5 6e3f 7994 763f 8496 723f d628 743f
000000b0: 67ae 773f cded 753f 3525 733f 23af 703f
000000c0: 99f9 783f aa4b 7a3f ed1e 743f d7da 703f
000000d0: 3a27 753f 080b 713f d45e 763f a165 733f
000000e0: 584b 703f 3b65 723f 2ce2 753f a859 703f
000000f0: 1021 773f 6249 733f 88ed 713f 9128 783f
00000100: 70e9 733f facf 7b3f 28b0 763f efe0 783f
00000110: 15ed 783f 638e 793f 172a 713f 741f 713f
00000120: 8499 733f a3f8 6f3f 4e0d 6e3f 6f49 743f
00000130: 7e72 743f 1146 773f 5bdd 753f 4c89 753f
00000140: ab6f 703f 2573 743f f7bf 743f 86b5 763f
00000150: 7f7c 783f ff6c 783f a8d9 723f 5741 7a3f
00000160: a9cb 763f dd8f 7a3f a99f 753f 70a7 723f
00000170: c5f7 793f 1ab3 6e3f cb26 743f 2dea 703f
00000180: bb77 793f 2d5c 753f 2037 733f 4dcc 6f3f
00000190: 7fe2 793f 5d85 733f 3373 773f 3dbf 733f
000001a0: 2567 783f a8fe 7d3f e0ba 743f 2259 763f
000001b0: 9779 703f 3889 763f 2e39 6f3f a046 773f
000001c0: 1693 783f 5ab8 773f b2ae 753f 613a 763f
000001d0: 9f63 723f 6a08 703f 81a4 743f c0fa 713f
000001e0: 8c89 763f 5365 743f 572f 7b3f ac5d 763f
000001f0: a50b 753f 9b1c 783f e887 753f ed4a 723f
00000200: df18 763f b194 753f 1134 703f 6b16 783f
00000210: 1a0f 733f 1557 723f 4e0f 753f 50dc 6e3f
00000220: 8b30 7b3f 04c0 6e3f 463a 733f 77b7 753f
00000230: be4b 753f c0be 723f ef5b 7a3f c136 783f
00000240: 3bdb 703f 7b46 723f 6ffd 743f af12 743f
00000250: 2df1 733f b51f 6f3f f6ea 733f cc00 773f
00000260: 1224 733f 8417 783f 31d6 753f 8193 753f
00000270: 39dd 753f 9fcd 793f 6839 723f ef55 753f
00000280: 1984 753f f08f 753f 326c 733f dead 713f
00000290: a675 773f 15c5 703f 4126 6f3f 4c43 773f
000002a0: 2111 793f 83cf 773f 6763 783f 0ee2 6e3f
000002b0: 3953 7a3f a8e2 723f 9196 7a3f 448e 713f
000002c0: b069 763f f05e 753f 1a4c 793f 0bd9 783f
000002d0: 58c0 793f dfd7 743f 61b6 733f 75a3 713f
000002e0: d550 743f 49d2 773f 9138 773f 313f 773f
000002f0: 41ad 6e3f b1e4 773f a4b7 773f 2ecc 733f
00000300: 2a1c 743f 9854 763f 5f7c 743f c6fe 793f
00000310: 0eb4 773f 7fc5 6d3f 04c9 753f d104 733f
00000320: 6c02 7b3f 4c97 6f3f 6763 733f 037d 723f
00000330: 01db 753f 9841 763f 0aa9 723f 5d01 763f
00000340: a8a4 783f 9d59 763f 5243 6f3f 72f8 763f
00000350: 88c4 743f 938c 773f b623 783f d1cd 6b3f
00000360: 56cb 783f 3bc6 753f 0445 793f 54fb 703f
00000370: f632 7c3f 30fc 773f d845 793f 5d58 6f3f
00000380: 21e8 733f dc6d 733f 7021 7b3f 18ed 713f
00000390: df15 763f 9432 733f 7b7d 733f 3fa0 763f
000003a0: fb43 733f 725c 733f e0a3 783f 0654 733f
000003b0: 8ffe 703f 05c0 763f a564 773f 35cc 763f
000003c0: fd27 743f 5b02 793f 76ba 743f a01e 7b3f
000003d0: 2b11 763f 2d44 743f 52c2 773f 3213 773f
000003e0: fdba 763f d17b 6f3f 992b 763f 0a9c 753f
000003f0: a24a 743f b934 743f 6fb8 793f b68f 743f
0.9607011 0.9717101 0.9759235 0.95476437 0.9690262 0.9419069 0.9646137 0.9678965
0.9645322 0.95264506 0.9868891 0.9717008 0.92976934 0.959321 0.9505504 0.9548628
0.9561489 0.94987774 0.9534652 0.94076854 0.9394393 0.9449434 0.95287156 0.96056265
0.9542947 0.9765603 0.96632874 0.9696402 0.9643807 0.93941873 0.961231 0.95683557
0.9645849 0.9544027 0.96860224 0.93534625 0.96243435 0.9578031 0.93393695 0.9830596
0.93318295 0.963203 0.9476092 0.9537481 0.9675049 0.9606598 0.9497865 0.9401724
0.97255856 0.97771704 0.9535969 0.94083923 0.9576298 0.9415746 0.96238446 0.9507695
0.93864965 0.94685715 0.96048236 0.93886805 0.96534824 0.9503385 0.9450307 0.969369
0.9527807 0.9836422 0.96362543 0.9721822 0.9723676 0.9748289 0.9420485 0.9418862
0.9515612 0.93738765 0.9298905 0.9542455 0.954872 0.9659129 0.96040887 0.95912623
0.9392039 0.95488197 0.95605415 0.9637073 0.97064966 0.97041315 0.9486337 0.9775595
0.9640451 0.9787577 0.9594675 0.9478674 0.9764369 0.9324204 0.95371693 0.94107324
0.9744832 0.95843774 0.9500599 0.93671113 0.9761123 0.9512537 0.96660155 0.9521368
0.97032386 0.992167 0.9559765 0.96229756 0.9393553 0.9630313 0.93446624 0.9659214
0.97099435 0.96765673 0.9596969 0.9618283 0.9468326 0.9376284 0.95563513 0.9452324
0.9630363 0.9546711 0.9811911 0.9623668 0.95720893 0.9691865 0.959105 0.9464558
0.961317 0.9593001 0.9382945 0.9690921 0.9494492 0.94664127 0.9572648 0.9330492
0.98120946 0.9326174 0.95010793 0.9598307 0.958187 0.9482231 0.9779653 0.9695855
0.9408452 0.94638795 0.9569921 0.9534101 0.9528988 0.93407756 0.95280397 0.9648559
0.94976914 0.9691088 0.96029955 0.959282 0.96040684 0.9757938 0.94618845 0.9583425
0.9590469 0.95922756 0.9508697 0.94405925 0.9666389 0.94050723 0.93417746 0.9658706
0.9729176 0.9680101 0.97026676 0.9331368 0.9778324 0.948771 0.97885996 0.94357705
0.96255016 0.9584799 0.97381747 0.9720618 0.9755912 0.95641893 0.95200163 0.9439004
0.9543584 0.96805245 0.9657069 0.965808 0.93233114 0.9683333 0.9676459 0.9523343
0.95355475 0.9622283 0.95502275 0.9765438 0.96759117 0.9287948 0.9600985 0.94929224
0.9805057 0.93590236 0.9507355 0.94722 0.960373 0.9619384 0.94789183 0.9609583
0.97126245 0.9623049 0.934621 0.9647285 0.9561238 0.96698874 0.9692949 0.92110926
0.97185266 0.960056 0.97370934 0.94133496 0.9851526 0.9686918 0.973722 0.93494207
0.95276076 0.9508951 0.98097897 0.945024 0.9612712 0.9499905 0.95113343 0.96338266
0.95025605 0.95062935 0.97125053 0.95050085 0.94138426 0.9638675 0.96637946 0.96405345
0.9537352 0.9726922 0.95597017 0.98093605 0.96119946 0.9541653 0.96780884 0.96513665
0.9637907 0.93548304 0.96160275 0.9594122 0.9542638 0.9539295 0.9754705 0.95531785

bias f4 [256]
00000000: a7f3 07bb 5730 b8bc 7690 ebbb 0796 07bc
00000010: 5b34 623b ca0c 00bc 730e 35bc 249c 0ebc
00000020: bba8 10bd 7c20 20ba 075d 10ba 68ce 0e3b
00000030: 6c81 eabb 0f16 bcba 7608 dabc 9e7e 4c3b
00000040: 6271 9cbb 8880 65bc 1a55 fc39 3e85 b4bb
00000050: 28c8 c0bb ffee 6fbc a8e0 14bc 2401 1bbb
00000060: 207a f6ba 5d17 93bb 8efb f3ba 04a3 42b9
00000070: e6a9 543b 0d82 05bc c35d 81bc 3e1c f9ba
00000080: 309b 73bc 42d3 dd3a 2472 6dbc f0e3 0cbc
00000090: 0b24 e7bb 0692 2bbc 37a4 47bc 0769 bcbc
000000a0: f950 21bc 087a 9e3b 1f7d 3fbc 43d9 3bbc
000000b0: 9d88 84bc bf22 9bbb 1b96 9bbc ef83 f4bb
000000c0: eb62 54bc 9da6 b8bc c26e d5bb b7ac 313b
000000d0: e721 62bc b0c9 b2bc 5f64 9fba 45b6 79bb
000000e0: 887d 97bc 66b8 0ebc ea78 71bb 23be 26bb
000000f0: d81f 8bbb 1c21 2abc f892 ebbb 9113 51ba
00000100: d64a 87ba 4f60 15bd e4dc 10bb 7930 543a
00000110: 3ede c2bc 2670 9abc e4bb f93a 3c0f 80bc
00000120: 9277 81bb a112 a9bc 3799 9cbc 92b9 12bc
00000130: 09e2 7abc b3fa acbc f4f8 9fbc 2834 2abc
00000140: ac3e e7bb 8309 8fbc 8649 30bc 58f6 9ebc
00000150: c63b 2fbc 8d1d 93bc f462 41bc ceb9 a5bc
00000160: 04bd 78bc 15be 84bb dc0f 15bc 729a a8bb
00000170: 7c69 fabc 0a95 66bb c3c9 a9bc 3428 3cba
00000180: 7f42 bfbb 8db0 07bc a64c dcbb 9be6 8ebb
00000190: 79ab 71bc 4ff7 46bc c8df 28bc f1cd 19bc
000001a0: 372e dcbb 50b0 32bc 98f3 3bbc 7e41 83bb
000001b0: 5504 f73a 3439 05bd a401 c33b 6e3a 26bc
000001c0: d627 83bc 5578 42bc 2344 1139 7462 adbc
000001d0: 00ba 923b 88ae 15bc dead b7bc cf32 1b3b
000001e0: ba54 22bb 2b14 f7bb 8363 d5bb 8d5b 59bc
000001f0: 310a eebb 89e6 5ebc 1043 44bc 0bbc 0abc
00000200: 8c37 7abb ea6a cbbb fde7 cebc 969f 57bc
00000210: 8c75 58bc 956d 54bc 84db d8ba 0b54 0cbc
00000220: 7519 dbbb ad7d 4dbc bfe3 b9bc 6a4d 49bb
00000230: 21b1 88bb 955f 4ebc 142e 96bc 97b8 82bb
00000240: b216 5dbc 554c 13bc 6bee 69bc 079b 9bbb
00000250: a1b8 9fbc c014 33bb 158a aabc e8d8 003a
00000260: 7d40 f439 3c31 43bc a908 aabc 577b ee3b
00000270: 02f9 a9bb 8ed8 9dbc 709e 84bc e1f3 3abc
00000280: 9801 193c 90de 1fbc e447 45bc 4ea2 0abc
00000290: 4eee 22bc ff6a 46bc 55b6 82bc df75 95bb
000002a0: 078b 93bc 391d 11bc 1abe 61bc fbf8 40bc
000002b0: 05b9 87bc 5019 8d3a 4c9b 15bc c387 41bc
000002c0: 3cd4 c53b 24d7 a93a 13ae 34b8 0800 e2bc
000002d0: 744b 87bc fd01 83bb 9b50 4c3c e0e6 97bc
000002e0: 1c4f 49bc 4586 293b 4e0b 95bc 8194 5bbc
000002f0: 4e46 9ebc d72c 8abc 9468 cc3a 7e6b b7bc
00000300: a68f 34bb a824 98bb e2ae c4bb ee5e 3bbc
00000310: e47f 1dbb e103 34bc 9f44 86bc 0a61 2ebb
00000320: 49fa f2bb 5cd2 16bc 2891 35ba e739 2fbc
00000330: d12f 22bc 7acf eebb 4e92 9abb e23d febb
00000340: 0548 88bc c998 f4ba 4321 6abb c1fe c33a
00000350: 9e6a 1dbc 1825 b1bb dd8e 5ebc be9a 3dbc
00000360: 0e67 50bc 89a9 8ebb bca5 a1bc 80a5 1cba
00000370: 897c ac3b 1b85 48bb 69e1 e4bc 3da6 35bc
00000380: a965 92bb 9dd8 293a a267 96bc eeec 43bc
00000390: 6f87 4ebc 08e3 91bb c344 98bb c48c 0ebc
000003a0: 259c a6bb b20a 1dbc 1faa afbb 68a5 903b
000003b0: 2df6 a6bb 9694 463a 6f3c 043a 18c9 e13b
000003c0: 4a9b 80bc 4fa4 b4bb efee 1bbb ba7c ecbb
000003d0: 8d79 f9bb 1bb3 7abc 2090 91bc 7bbb a5bb
000003e0: 4948 ddbb 27c7 73bc 8ec5 33bc 8422 37bc
000003f0: 6c26 45ba c233 11bc de9b 0fbc 906c 8bbc
-0.0020744593 -0.022483988 -0.007188852 -0.008275515 0.003451607 -0.007815549 -0.011050808 -0.008704219
-0.035317164 -0.0006108356 -0.0005507026 0.0021790508 -0.0071565416 -0.0014349836 -0.026615363 0.00312034
-0.0047742585 -0.014007695 0.0004812859 -0.005509048 -0.0058832355 -0.014644383 -0.009086765 -0.0023651803
-0.0018804707 -0.004488869 -0.0018614398 -0.0001856201 0.00324499 -0.008148682 -0.01579178 -0.0019005609
-0.014868543 0.0016923922 -0.014492545 -0.008599266 -0.007053857 -0.010471826 -0.012185148 -0.0229993
-0.009845966 0.0048363246 -0.011687546 -0.011465373 -0.016178424 -0.0047343667 -0.018992474 -0.007462017
-0.012963037 -0.022540385 -0.0065134475 0.0027111003 -0.013802028 -0.021824688 -0.001216065 -0.0038103026
-0.018492475 -0.008710956 -0.0036845752 -0.002544292 -0.0042457394 -0.01038387 -0.007189151 -0.0007975633
-0.0010321985 -0.0364688 -0.0022104317 0.0008094381 -0.023787614 -0.018852305 0.0019053188 -0.015632264
-0.0039510215 -0.020638766 -0.019116027 -0.008955376 -0.01531268 -0.021115636 -0.01952789 -0.010388412
-0.0070570316 -0.01746059 -0.010759717 -0.019404575 -0.010695403 -0.017958427 -0.011803377 -0.0202302
-0.015181784 -0.00405098 -0.009098019 -0.0051453644 -0.030567877 -0.003518405 -0.02072609 -0.00071776216
-0.0058367844 -0.008281839 -0.0067230044 -0.0043609864 -0.014750355 -0.012143924 -0.01030726 -0.009387479
-0.0067193764 -0.010906294 -0.0114716515 -0.00400561 0.0018845896 -0.032525256 0.0059511233 -0.010145767
-0.016010206 -0.01186951 0.0001385366 -0.02116511 0.0044777393 -0.00913585 -0.022421774 0.0023681407
-0.002476974 -0.007540246 -0.006512107 -0.013266456 -0.0072643985 -0.013604769 -0.01197888 -0.0084676845
-0.0038180081 -0.0062078135 -0.025257105 -0.013160607 -0.013211619 -0.0129655795 -0.0016544913 -0.008564959
-0.0066863843 -0.0125421705 -0.022691606 -0.0030716308 -0.004171506 -0.012596031 -0.018332519 -0.00398929
-0.0134941805 -0.008990367 -0.014278035 -0.0047487053 -0.019497218 -0.00273256 -0.020817796 0.0004915134
0.00046587354 -0.011913594 -0.020756083 0.007277887 -0.0051871547 -0.0192683 -0.01618883 -0.011410684
0.009338759 -0.009757653 -0.012041066 -0.008461548 -0.009944512 -0.012110471 -0.015956083 -0.0045611705
-0.01801063 -0.008857065 -0.013778234 -0.011778112 -0.016567716 0.001076499 -0.009131264 -0.011812153
0.006037263 0.0012957794 -4.3077463e-05 -0.027587906 -0.016515471 -0.0039980398 0.01247039 -0.018542707
-0.012286928 0.0025867384 -0.018193867 -0.013402105 -0.019320633 -0.016867084 0.0015595132 -0.022390123
-0.0027551441 -0.0046430416 -0.006002293 -0.011436207 -0.0024032528 -0.010987253 -0.016390143 -0.0026608133
-0.00741509 -0.009205427 -0.0006926232 -0.010694957 -0.009899096 -0.0072879167 -0.004717148 -0.007758842
-0.016635904 -0.0018661256 -0.0035725392 0.0014953242 -0.009607939 -0.0054060332 -0.013583866 -0.011572538
-0.012719883 -0.0043537063 -0.019732349 -0.0005975589 0.005263869 -0.0030596915 -0.027939515 -0.011086998
-0.0044676852 0.0006479116 -0.018359963 -0.011958344 -0.012605532 -0.004452113 -0.004646869 -0.008700553
-0.005084532 -0.0095850695 -0.005360856 0.004414249 -0.0050952644 0.00075752416 0.00050444057 0.0068904273
-0.015699048 -0.005512751 -0.0023793539 -0.007217017 -0.007613367 -0.015301491 -0.01776892 -0.00505775
-0.006753002 -0.014879025 -0.010972394 -0.011177663 -0.0007520679 -0.008862438 -0.008765189 -0.01701954

running_mean f4 [256]
00000000: b736 753d 7561 1e3e 2b74 493d a917 8dbd
00000010: 5b07 773d f070 f53d 5caf fdbd 9d9b 2d3d
00000020: 2969 b63d 5e57 783b 8462 afbd d152 35bd
00000030: b5b9 c7bc a6ce 423d 7c36 863d 893b 4ebc
00000040: 35cc bcbd b052 ad3d 8822 a73d f72e b9bd
00000050: cec0 9a3d 4ff7 e53d 0260 dc3c c5c9 c0bd
00000060: 9f8e 423e f310 9d3c 6a73 e8bd c766 3f3d
00000070: aa0c f8bd 37c6 5a3b e169 db3d 8624 f5bc
00000080: 6a7f e2bd 20f8 adbd e578 42bd 6704 053d
00000090: 8ac3 083e 6b7c 163d f73b b63b c366 d53d
000000a0: f73d 503d a917 d3bd 59f0 ecbd 3057 d6bd
000000b0: 1c84 09bd 788b 953d 92d2 0cbe f4b9 aabd
000000c0: 3973 b63d b75e 3e3d cb49 f0bc e90c 51bc
000000d0: 537e 503e 6169 2b3e 5f88 e03b 45a6 31bd
000000e0: 5ac7 b33d 3d1d 00bd e8a5 3fbd 4772 0dbe
000000f0: 0206 2dbd c4d1 9b3c 3409 f4bd 64c7 acbd
00000100: 875a 8b3c dd91 6b3d 0ce9 fd3d 17a6 0b3e
00000110: 09b7 aa3d 10ef ed3c 4dda c03c a9c6 1d3e
00000120: d7f9 c43b dad9 073e caca 1abd 982b 4fbd
00000130: dc2d f23d 0539 5fbd f2ea eebd 76bc 95bd
00000140: 72d1 57bd 34fc 4fbd f23b 173d ffb6 3bbd
00000150: 7a45 2fbc 2f2c 423e 3685 91bd 6434 c23d
00000160: 2911 123d 9f92 a83d 137a 02bb 81f0 363d
00000170: 40b8 b1bc 406e b2bd 00e2 c73d 428d 11be
00000180: 8b5d b8bd a84c 08bd 8603 06bc a645 17bc
00000190: a3f6 94bd 4728 0e3e 3378 7fbd 34b8 f7bd
000001a0: eb44 1cbd 3668 b8bc 1749 233e 4b03 a53d
000001b0: a29b 21be 9ed0 2dbd e16d 17bd dc6d 0fbd
000001c0: 5e91 b7bd 41a0 0a3e 4f2e d53d 1954 a83c
000001d0: f28d 273b 9ff1 3e3d 550b 49be a1af eeba
000001e0: 79e5 a8bd d841 70bd 8a2a 7abc 1517 9c3d
000001f0: cf65 6bbd 48d0 b8bc 4e7d 93bc 2f51 7c3d
00000200: d810 dbbd 2c52 a2bd e8aa 09bd 9263 8fbb
00000210: f6b9 fabc 554f 72bd 6b91 20bd 90f8 ce3d
00000220: 7159 b93d b068 1c3c 1012 633d d1e9 f13d
00000230: 2c55 15bd 493c 91bd 6290 063e c535 883c
00000240: 6b68 b13d 3b28 7abd e8c0 0fbe 7ca5 e4bd
00000250: 9ae9 61bd 78a7 fabd b54a 3abe 1629 523d
00000260: 0e26 763b f0e7 773d d71b a2bc 5ef6 413c
00000270: df4e 313e d585 fdbd 1846 033d 6076 563e
00000280: 46c9 1c3e 2dfe 6dbc 138c 363e 4806 8ebd
00000290: a424 76bd ab29 d8bd 21a6 1b3e bfe5 10be
000002a0: 94fb c13d 29ef 8bbd 7e26 5e3b 2414 0dbe
000002b0: d9ee cdbd c30b 6a3a e341 d23c 1cef c03d
000002c0: 1cdd 9c3d bdab c93d cf17 a13d 87c8 e6bc
000002d0: c87d 023e 7b37 51bc 31db b63d d53a 8d3d
000002e0: 9ed8 fc3b 326b 44bd 07d6 963c 727f 8abd
000002f0: 3b34 16be 2c54 d73d 9e17 1abd a1bf e23c
00000300: 755a 413d 23d6 b7bd 0ade 17be 7b1c 013e
00000310: 7752 173e 528c 453d 8eef 3e3e 05f2 ee3d
00000320: d9f1 a3bc e38d 15be a55a 483e ee82 b6bc
00000330: 537a d93a a1ad 8dbd 3672 513d 6a7d 023d
00000340: 4241 fc3c c86e 5ebd db72 a33d cdb9 b0bc
00000350: fdc9 ebbd a48e 933d d67a acbd 9cfa 373d
00000360: e871 823c bc17 52bd 34ca 023d 03f6 023e
00000370: 12ee 093b 8efb 99bd 098f f0bd 5949 fcbd
00000380: f20f 663d 72eb 61be 2562 a53d f8a0 823d
00000390: fe57 b1bd d230 90bd 8c29 aabd 7d65 1b3e
000003a0: 92a5 85bc ebc5 363c 42e0 b03d d741 50bd
000003b0: 3f12 c3bb 46a1 543c d0a4 06bd f8de 5cbe
000003c0: f735 0b3e 3a10 57be 180d a33d 9b23 da3d
000003d0: eabf 3c3d 53ec 233e 5b79 5b3d 0c71 a63c
000003e0: 887f 863b aba2 203d f869 0cbc 9f9f 41bd
000003f0: 6810 8bbc dda9 15bd bed4 ed3c 0b8b 4f3c
0.059866633 0.15466864 0.049183052 -0.068892784 0.06030975 0.11984432 -0.12386963 0.042384733
0.089067765 0.0037893872 -0.08563712 -0.044268433 -0.024380544 0.047560357 0.06553361 -0.0125874365
-0.09218637 0.08463037 0.08160883 -0.09042161 0.07556306 0.11228811 0.026901249 -0.094134845
0.18999718 0.019173121 -0.113501385 0.046728875 -0.121117905 0.0033382305 0.10713554 -0.029924642
-0.110594586 -0.08494592 -0.047478575 0.0324749 0.13355842 0.036739748 0.0055613476 0.10419991
0.050840344 -0.10307247 -0.1156928 -0.104658484 -0.033573255 0.07301992 -0.13752201 -0.08336249
0.08908696 0.046477046 -0.029332062 -0.012759426 0.20360689 0.16739418 0.006852194 -0.043371458
0.08778258 -0.031277884 -0.04678908 -0.13813125 -0.042242058 0.019020922 -0.11915818 -0.08436468
0.01701094 0.057512153 0.12397966 0.13637577 0.083356924 0.029044658 0.023541594 0.15407814
0.0060112285 0.13266698 -0.03779105 -0.050578684 0.11825153 -0.054497737 -0.11665906 -0.07311337
-0.052689977 -0.05077763 0.036922403 -0.045828816 -0.010697717 0.18962167 -0.07105486 0.09482649
0.035660896 0.08231091 -0.0019909188 0.044662956 -0.021694303 -0.08712435 0.09759903 -0.14214042
-0.09002217 -0.03327623 -0.008179551 -0.009232914 -0.07273605 0.13882552 -0.06237049 -0.12095681
-0.038151663 -0.02251063 0.1594585 0.08057269 -0.15782025 -0.04243528 -0.036970023 -0.03501688
-0.089632735 0.13537695 0.10409223 0.020547913 0.0025566784 0.046617147 -0.19633229 -0.00182103
-0.082468934 -0.058656543 -0.015268931 0.0762159 -0.05747014 -0.022560254 -0.018004086 0.06160086
-0.10696572 -0.07925829 -0.033610255 -0.0043758834 -0.030606251 -0.05915769 -0.03920118 0.10106003
0.09050263 0.009546444 0.055437148 0.11812175 -0.03645818 -0.070915766 0.13141015 0.016627202
0.08662494 -0.061073523 -0.14038432 -0.11164376 -0.05515442 -0.122389734 -0.18192561 0.051308714
0.0037559303 0.060523927 -0.019788666 0.011838524 0.17315243 -0.12379042 0.03204927 0.20943594
0.15311155 -0.014525932 0.17826872 -0.06934792 -0.060093537 -0.105548225 0.15200092 -0.14150141
0.09471813 -0.068327256 0.0033897455 -0.13777214 -0.10055322 0.0008928144 0.025666183 0.094206065
0.07659361 0.098472096 0.07865869 -0.02817179 0.12743294 -0.012769575 0.08928526 0.06895987
0.0077162525 -0.047953792 0.018412603 -0.067625895 -0.14668362 0.105141014 -0.03762018 0.027679266
0.047205407 -0.0897639 -0.14830795 0.1260852 0.14777552 0.048229523 0.1864607 0.11667255
-0.020012783 -0.14604907 0.19565828 -0.022279229 0.0016592242 -0.06917883 0.05113431 0.031857885
0.030792836 -0.054304868 0.07980891 -0.021572972 -0.115131356 0.07204941 -0.084218666 0.044916734
0.015923455 -0.051292166 0.031931117 0.12789159 0.0021046442 -0.075186834 -0.11746032 -0.123186775
0.05616755 -0.22062472 0.0807536 0.063783586 -0.08659361 -0.07040562 -0.08308706 0.15175433
-0.016314302 0.011155586 0.08636524 -0.05084404 -0.005953103 0.012977904 -0.03287202 -0.21569431
0.13594805 -0.21002284 0.07961482 0.106513225 0.04608146 0.1600812 0.05358253 0.020317577
0.0041045584 0.039217632 -0.008570187 -0.047271367 -0.016975597 -0.036538947 0.029032107 0.012667428

running_var f4 [256]
00000000: 3b22 f73c 6afe f73c 0bf8 d73c 2f57 0f3d
00000010: 3d41 d73c 66c0 cb3c 127a 1a3d 1c0a e63c
00000020: d30c 0b3d f048 213d 96de fb3c 6e89 e53c
00000030: bff5 1a3d 5492 093d 5f0d 053d e5f2 e73c
00000040: 0819 cf3c 43cd 193d 583d 3c3d 4aaa 1e3d
00000050: d6c5 133d 520a 533d 4db3 033d 6ebe e53c
00000060: cb6c 3e3d 61b2 fc3c 1182 e53c 13a3 d73c
00000070: 4c23 e73c c231 023d 97e9 083d 82f0 f43c
00000080: 01cb e43c 8488 dd3c 7b2e 243d 27cc 023d
00000090: 25a9 f93c 33b9 0d3d bb81 1d3d 6a9f ca3c
000000a0: 0cf7 143d 7b32 ff3c 7dce 053d b73e d93c
000000b0: 90eb 113d d43c 023d 2b59 1e3d 21f9 fa3c
000000c0: 87ce fb3c ef24 1f3d a3f4 3a3d ed74 373d
000000d0: 108c 0d3d 8b47 bc3c 988e fe3c 9db6 2d3d
000000e0: 9dd4 0d3d fd98 1f3d 52eb 063d 9365 4f3d
000000f0: 31fa 153d 64bf dc3c 7cb9 253d b65e 1f3d
00000100: dd55 c73c 6fc1 fa3c 44ec f83c 7659 fb3c
00000110: ce2d 033d 91f8 e43c 0e07 103d 5c93 d73c
00000120: 2e31 013d 630f fc3c 36cc fb3c ec58 be3c
00000130: 92f0 063d 4ea7 e43c 6a6d 203d 33b7 d43c
00000140: 7aa3 0d3d 3a0e f73c be35 1a3d e65e 153d
00000150: 7985 043d ec5e dc3c dbc1 d73c b525 e93c
00000160: 593c d83c 1fd8 223d d90e d43c b5b0 bc3c
00000170: 7ce6 dd3c 3361 183d 1037 243d f02e 223d
00000180: ad5c e33c 5c91 ce3c cb2e f73c 8f08 ba3c
00000190: bff5 e43c c9c1 e93c 1ee5 263d 48e5 c93c
000001a0: a4d9 d93c bc81 b83c 3513 2e3d fb4f c33c
000001b0: ce8b 213d 7b3e 0e3d 5c9b 213d 004a 4a3d
000001c0: 118f c63c 89eb 0f3d 2680 e23c 9197 ba3c
000001d0: 923c fa3c 137e d33c a1a0 ea3c cb91 ed3c
000001e0: ec55 f03c ad20 db3c 89d6 d63c 506f e83c
000001f0: 2b7c 023d 80c7 af3c 3177 f43c 78b7 173d
00000200: 239f 103d 8348 f73c c9dc 233d 301d 033d
00000210: 0351 163d 06c8 e43c 90b6 003d 7a99 033d
00000220: d510 b03c 4539 ef3c 9f0e f23c 5106 e23c
00000230: 8208 e63c b660 fb3c 508b c23c dcfa ea3c
00000240: a697 ee3c 7e78 b23c b09c 0e3d 871d c93c
00000250: 2f7b 043d 247d 233d dc74 033d 67c8 e83c
00000260: 7d65 ef3c a51a d83c 4148 dc3c 5269 fc3c
00000270: 7b98 ae3c 4391 ed3c ab32 a93c d30f e43c
00000280: 5940 ef3c b5dc 0e3d 2e04 0e3d b634 373d
00000290: 025d 083d 2195 e13c 80a9 2f3d 988a 993c
000002a0: f7a3 103d 1fbb ba3c 7bae bc3c 32e0 383d
000002b0: 6a58 db3c 05cf 233d f763 d43c dfb8 013d
000002c0: d71a 0e3d 2e4f eb3c 31f8 0b3d 1dd6 253d
000002d0: e9ae 063d 486c 1f3d 4689 f23c 4cb6 eb3c
000002e0: 3fbe 063d 23b6 0a3d 209b 103d 8a06 db3c
000002f0: 8437 cb3c 90a7 f83c 2093 d43c 0100 153d
00000300: 0a1d e83c fd21 ed3c c9dc 0c3d 8c3c 203d
00000310: bb3b 043d 4100 163d 399d 083d c9eb d53c
00000320: e3b2 b53c 13f5 133d c9ed ec3c a06e f83c
00000330: f680 e43c f662 b93c cc56 0b3d 7e41 fa3c
00000340: 2b38 ea3c 7b05 c93c 9722 053d d01c fb3c
00000350: c8f5 cb3c 957f d93c 3aa7 d43c e570 103d
00000360: c9c8 a33c 0888 453d 4d30 f83c a34b 1f3d
00000370: 26b6 c63c 7019 df3c 694e 123d 77e8 f93c
00000380: a5c0 013d b691 353d 9bbb 013d 151c 043d
00000390: 69ef be3c 3bae e23c d7bf 133d 8de5 f83c
000003a0: 840b c43c c9d4 ec3c 33ad d13c 04ba e63c
000003b0: 5be8 0a3d f5fd ff3c df2a 0c3d 1300 113d
000003c0: c009 e03c ff6d e13c fa35 b23c 025f e83c
000003d0: c5d3 193d c370 393d 144d 063d e82c df3c
000003e0: 3a3d 0c3d 9b4c f63c e23f f23c 5d8c 113d
000003f0: 7b95 323d 9380 f93c d00a e53c 1d3c ef3c
0.03016769 0.030272681 0.026363393 0.034995254 0.026276225 0.024872016 0.03771407 0.028080992
0.033947777 0.0393762 0.030745786 0.028019633 0.037832018 0.033586815 0.032483455 0.028314063
0.02528049 0.03754927 0.04595694 0.03873662 0.036077343 0.051523514 0.032153416 0.028044906
0.04649047 0.030846776 0.028016122 0.026322877 0.028215073 0.031785734 0.033425894 0.02989984
0.027928831 0.027042635 0.04008339 0.031932976 0.030476162 0.034600448 0.0384538 0.024734218
0.036368415 0.031152 0.032667626 0.026519163 0.03562504 0.03179629 0.038659256 0.030636372
0.030738128 0.038853582 0.04564346 0.044789243 0.034557402 0.022983333 0.031073853 0.04241048
0.034626592 0.03896426 0.032939263 0.050633978 0.036615554 0.02694673 0.040460095 0.038908683
0.024332935 0.030609814 0.030386098 0.030682307 0.032026105 0.027950557 0.035162978 0.026315384
0.031541042 0.030769056 0.030737024 0.02323576 0.03294427 0.027911808 0.039166845 0.025966262
0.03457973 0.030158151 0.03764891 0.036467455 0.032353852 0.026900731 0.026337555 0.028460363
0.026395964 0.03975689 0.025885986 0.02303348 0.027087443 0.03720207 0.040091574 0.039595544
0.027754152 0.025215797 0.03017368 0.02270916 0.027949212 0.028534787 0.040745847 0.024645463
0.026593037 0.0225228 0.042498786 0.023841849 0.03943997 0.034727555 0.039454803 0.04938698
0.024238141 0.035136733 0.027648997 0.02277735 0.03054646 0.025816953 0.028641047 0.029000184
0.029337846 0.02674898 0.026225345 0.02837339 0.031856697 0.021457434 0.029841991 0.037040204
0.035308015 0.030185943 0.04000548 0.032010257 0.036698353 0.02792741 0.031424105 0.03212879
0.021492401 0.029202113 0.029547988 0.027590903 0.028080229 0.030685764 0.02374807 0.028684072
0.029125046 0.02178597 0.034817398 0.024550213 0.03234404 0.039914265 0.032093868 0.028415872
0.029223198 0.026379893 0.026889922 0.03081194 0.021312943 0.02899993 0.020654043 0.027839577
0.029205488 0.03487845 0.034671955 0.044728003 0.033291824 0.02753693 0.042886257 0.018742844
0.03531262 0.022794304 0.023032418 0.045135684 0.026775558 0.03999235 0.025926573 0.031670447
0.034693565 0.02872428 0.03417224 0.040487397 0.03288165 0.038921624 0.029606473 0.02877345
0.032896277 0.033865105 0.03530419 0.026736517 0.024806745 0.030353338 0.02594906 0.036376957
0.02833416 0.028946871 0.034390245 0.039120242 0.032283526 0.036621336 0.033353064 0.026113408
0.022180026 0.036122393 0.028921979 0.030326188 0.027893525 0.022630196 0.034018323 0.030548807
0.028591236 0.024538746 0.03250369 0.030653387 0.024897471 0.026550094 0.025958646 0.035263915
0.019993203 0.048225433 0.03029647 0.038890492 0.024256777 0.02723381 0.03571931 0.030506356
0.03167786 0.044328414 0.031673055 0.032253344 0.023307519 0.02767097 0.036071625 0.030382896
0.023931272 0.028910058 0.025595283 0.028164871 0.033912998 0.031249026 0.034220573 0.03540046
0.0273484 0.02751827 0.021754254 0.028365616 0.037555475 0.045273554 0.03278835 0.027243093
0.034238078 0.030065825 0.029571477 0.03553425 0.043599587 0.030456817 0.027959257 0.029203469

weight f4 [128, 256]
00000000: dae2 a6bc b8e7 34bc 75a4 88bc 902e 3b3d
00000010: 6ef8 0a3d 120a 023d d7f8 38bd 782e f4bb
00000020: 0e00 1a3d 7512 2c3d feb7 1e3c efb4 45bd
00000030: c227 263c 1b0c 173d dc92 bb3b f9d8 d3ba
00000040: 29ce 0a3d 447f 5f3d 6643 2a3d 6bb7 2fbd
00000050: 9dce 34bd ac27 1ebd df42 25bd b11f 1abd
00000060: 602f 77bd fab6 023c e995 fdbc 85a2 82bd
00000070: cb4d 03bc 4c71 55bd 4443 533d 83a1 ef3c
00000080: 7d61 db3b eb4c 203d a8b2 d8bc 3125 6dbd
00000090: a648 7dbd c007 c0bc db42 01bd 3bb1 46bc
000000a0: 7086 75bc e3aa e53c 4b7e 02bd 428b 9f3c
000000b0: 9795 eb3a 09ca 53bd 9dfd c0bc 169c 6abd
000000c0: 655c 95bc a790 b63c c629 cf3c febc 5f3d
000000d0: 0fe0 253d 8270 2f3c 61dc 2b3d 08fe 1dbd
000000e0: ccca 4cbd 11f3 633d 575d 9b3c c8ad a0bc
000000f0: 7a05 6b3c cb60 20bb f7b5 debc 337a 963c
00000100: ccc8 343c fce3 233d a764 1d3d e217 aa3c
00000110: dc0f 583d 3344 6bbd fa46 8cbc 29c4 45bc
00000120: 1bfb f5bc d701 1b3d 73ad 4fbd 791e 3e3b
00000130: 7c40 a93c 3f97 203d f18d c1bc 9eff 673c
00000140: 8133 373d 3265 68bd 0351 11bd 83b1 be3c
00000150: f989 a0bc 1128 e83c 651b 03bd 3490 a9bc
00000160: e58d 9bbc 6361 3ebd efe8 c5bc be8b 413d
00000170: 4cc5 6bbd 1705 35bd 7501 2dbd 24f9 67bc
00000180: a7b7 2d3d f369 343c 4565 27bd 3e3b d03b
00000190: c9c0 b4ba dd0e 03bd 2198 fb3c b0fc 9cbc
000001a0: 209f 803b fda9 103d b172 13bd 4690 febc
000001b0: 4e80 d23c 9302 c0bc 2435 3ebd 64f4 c83b
000001c0: 8b54 d53c c7da 093d 096d 89bc 50cf 033d
000001d0: 2779 90bc e9d5 cbbb 7417 573d 9793 8fbd
000001e0: 0302 0cbd 11a5 fbbc 9115 51bb 8ee0 2dbd
000001f0: 6f1e 4d3d 7a87 093d 9af6 2a3d 16ff 53bd
00000200: 324d d2bc c5ab c83c 6f77 633d 8b34 8dbd
00000210: d0ed 2a3d 649c c5bc 21d6 1c3c fcff 6bbd
00000220: 3d85 8f3b be5a 18bc 7d03 93bd eb81 0fbd
00000230: 036a 6abd f133 b6bc 310d 3dbd f241 4fbc
00000240: c141 8e3c 903d ecbc dcda 803c 0ed7 1e3d
00000250: e0a9 193c 79fd 123a d90d c23b e360 48bc
00000260: d7d7 d73a 653a 2fbd b01e 183d b80c 08bd
00000270: e0f6 ccbc 17c1 403d 3b65 0ebd 44b5 8ebc
00000280: 4511 9c3c d86e 693d f6cc 2d3d c5ef 843d
00000290: 7a36 093d b070 2ebd d7b0 08bc c25f debc
000002a0: 82a8 2bbd e16f 39bd f076 cb3c 55a4 7c3d
000002b0: a389 6d3d 242a 32bc 744b d8bb c8b2 163d
000002c0: 253e 3b3d dbac 25bd b002 363d 59a9 3f3d
000002d0: 00ae bf3c 8e40 68bd 29cf 6cbd 843f a4bb
000002e0: 8760 3bbd 87cd a1bb cf97 e83c 5f75 623c
000002f0: 0b1f a73c 625c 6dbd 9a2e 4d3d 3741 edbc
00000300: 034d 3c3b 4589 cdbc 5161 5fbc 28a3 e1bb
00000310: f967 2c3d 35cc 0f3d 2840 1abd 5d41 23bd
00000320: da69 19bd d95f 1a3d 4773 1abd f541 1d3c
00000330: ea9c 1dbd 8784 b43c f4d7 073d 09aa 4dbd
00000340: 46a4 0b3d f8bc d9bc c024 13bd 5e72 bfbc
00000350: c548 a93b f828 6b3c eaf2 04bd cdaa 563c
00000360: c651 883d 8c80 60bd b538 cc3c 9d94 873c
00000370: 800b 1dbc 4151 843d cb3a 053d 8082 a9bc
00000380: 3cbf bebb 1550 da3b e0c2 ccbb 08e3 4c3d
00000390: d8d3 78bc 6ec5 30bd e668 2b3d cc6f 453d
000003a0: 214b 29bd dc5d 83bc c171 7c3d 0d66 0f3d
000003b0: 2621 6b3c ae54 2e3d bfc0 51bd ee5f 03b9
000003c0: 97ec 15bd 1021 68bd d0d5 24bd 119a 8a3d
000003d0: 4f80 0d3b e01f cf3c ab97 4f3d d760 40bd
000003e0: f845 4cbd cb1c 09bc 6788 24bc 7a53 9d3b
000003f0: f466 d1bb 5183 2dbd c30c 2abd 9623 0dbd
-0.020371843 -0.011041574 -0.016679982 0.045698702 0.033928327 0.031747885 -0.045159187 -0.0074518286
0.03759771 0.04200979 0.009687422 -0.048268255 0.010141315 0.03687678 0.005724294 -0.0016162685
0.033888016 0.05456473 0.041568182 -0.04289953 -0.044142354 -0.038612053 -0.040346976 -0.03762788
-0.060347915 0.007978195 -0.030955272 -0.063786544 -0.008014153 -0.05211 0.05157782 0.02925182
0.006694971 0.039135855 -0.026452377 -0.057896797 -0.06183686 -0.023441195 -0.0315579 -0.012127216
-0.014985666 0.028035587 -0.031858724 0.019475583 0.0017973658 -0.051706348 -0.023558432 -0.05727776
-0.018232534 0.022285772 0.025288474 0.054623596 0.040496882 0.010707976 0.041958217 -0.03857234
-0.04999809 0.055651728 0.018965406 -0.019614115 0.014344567 -0.0024471756 -0.027186377 0.018368816
0.011034202 0.040012345 0.038426068 0.020763341 0.0527495 -0.057438087 -0.017123688 -0.012070694
-0.030026963 0.03784355 -0.050702523 0.0029009862 0.020660631 0.03920674 -0.023627253 0.014160065
0.044726852 -0.056737132 -0.03547765 0.023278004 -0.01959704 0.028339418 -0.032008547 -0.020698644
-0.018988559 -0.046479594 -0.024158923 0.04725241 -0.057561204 -0.044194307 -0.042237718 -0.014158521
0.042411473 0.011011588 -0.040868063 0.0063547185 -0.0013790365 -0.031996597 0.03071219 -0.01916346
0.003925219 0.035318363 -0.03599805 -0.031074654 0.025695946 -0.023438727 -0.046437398 0.0061326493
0.02604129 0.033655908 -0.016775625 0.03218013 -0.017635895 -0.0062205684 0.0525126 -0.070105724
-0.034181606 -0.030718358 -0.0031903724 -0.04245048 0.05007785 0.033576466 0.041739084 -0.05175694
-0.025671575 0.024495969 0.055533823 -0.068947874 0.041730702 -0.024122424 0.009572537 -0.057617173
0.004379897 -0.009298978 -0.071784 -0.03503601 -0.057230007 -0.022241564 -0.04615516 -0.01265
0.017365338 -0.028837949 0.01572936 0.03877931 0.00937888 0.00056072284 0.005922061 -0.012230131
0.0016467524 -0.0427803 0.03713864 -0.033215255 -0.025020063 0.047059145 -0.03476451 -0.017420419
0.019051204 0.056990474 0.042431794 0.06491045 0.03349922 -0.042587936 -0.008342943 -0.02714527
-0.04190875 -0.04527271 0.024836987 0.061680157 0.05799259 -0.010874305 -0.0066007916 0.036791593
0.045713563 -0.04044805 0.044436157 0.046792362 0.0233984 -0.05670219 -0.05781475 -0.0050124545
-0.045746353 -0.004937831 0.0283927 0.013821929 0.020400545 -0.05794943 0.05009327 -0.02896176
0.0028732426 -0.02508987 -0.013634042 -0.006885905 0.042091344 0.035106856 -0.03765884 -0.039857257
-0.037454464 0.037689064 -0.037707593 0.009598245 -0.038479723 0.02203585 0.033164933 -0.050210986
0.03409221 -0.026579365 -0.03592372 -0.023369964 0.0051661455 0.014353029 -0.032458223 0.0131022455
0.06656222 -0.05481009 0.024929384 0.016550357 -0.009585261 0.064608105 0.032526772 -0.02069211
-0.0058211368 0.0066623786 -0.006248817 0.0500212 -0.015187226 -0.043157034 0.041848086 0.04820232
-0.041331414 -0.016035967 0.06163192 0.035009433 0.014351165 0.042561226 -0.051209208 -0.0001252887
-0.036602583 -0.056672156 -0.04024297 0.06767667 0.002159137 0.025283754 0.05068175 -0.046967354
-0.049871415 -0.008368681 -0.0100422865 0.004801211 -0.006390447 -0.04236156 -0.041516077 -0.034457766

bias f4 [128]
00000000: 00d0 9fb5 d895 03b4 934c 2434 49e9 2635
00000010: c49f b7b5 a20b 5bb4 ad10 c434 379e 5535
00000020: b072 4e35 b1f1 0a35 fb50 47b4 8f2b 8ab5
00000030: 354f 7035 e8b3 0935 6384 5933 9ec8 d9b5
00000040: 8873 8036 79b2 f935 bf9e 63b5 855d a2b5
00000050: b8e9 6334 7ede 80b6 8f60 aa34 669e 4cb4
00000060: ad87 89b3 3f8b 5cb4 a52d af34 eb3b bf33
00000070: 7073 0a35 6f32 c8b5 4b67 9a34 4cc2 c534
00000080: 0500 a9b4 3401 0036 5da7 eeb5 ba96 2b36
00000090: c241 b834 fe8a 9635 e538 fcb4 f901 2a35
000000a0: 2826 8eb6 19b8 2236 66b0 ddb4 70d9 81b5
000000b0: 6934 ae35 0921 fa34 8210 ca34 ddb1 3ab6
000000c0: 3e18 e835 3a60 dd34 0e5f 29b5 07b9 bd36
000000d0: a18d 5034 4551 4e34 1f02 4735 3c6e 2c34
000000e0: 4db5 b634 6aa9 19b6 ded0 04b6 6286 8036
000000f0: 7941 69b4 8b10 18b5 65f7 bd34 c4d9 4935
00000100: 5556 1c35 93e2 70b4 60e3 25b6 db5a 6a34
00000110: 857a 7ab4 4c07 52b5 9c2f 2bb5 d92e 1533
00000120: d272 6b34 1dca 2ab4 1e5c 7035 84b8 8f33
00000130: 841e 7b36 4ed2 3235 c6f9 8b36 f688 a2b6
00000140: 004d 47b5 c913 d0b5 a1fe 0bb5 b31c af34
00000150: 51af 4b32 dcbc 33b0 e41a 0cb5 f2bd 26b5
00000160: 8c57 0fb5 f9f1 75b4 9fae 2535 3f03 a934
00000170: 0da4 9bb5 f002 63b5 7ac2 02b5 e385 bab4
00000180: b410 0c35 7c9a 37b4 1c59 c7b1 5d81 00b5
00000190: 207e a933 35ab af35 4ef0 ca34 ddc9 e7b5
000001a0: 60e3 3835 8cc0 7bb5 0f74 3235 bf86 9735
000001b0: 8889 61b6 4937 8933 bdb2 0ab6 20ba 8a34
000001c0: e680 84b4 1b59 4d33 dc58 2d32 69e6 0fb6
000001d0: f67a a3b4 2060 5a32 d54b 93b5 c03e 16b5
000001e0: 8809 f2b5 e58e 09b5 3f4c 4ab5 4428 a0b5
000001f0: dc37 afb4 dd89 75b4 2962 bb35 a1cc 6834
-1.1906959e-06 -1.2254839e-07 1.5301548e-07 6.2179294e-07 -1.368106e-06 -2.0400196e-07 3.6519978e-07 7.9578916e-07
7.690787e-07 5.1760713e-07 -1.856278e-07 -1.0294478e-06 8.952223e-07 5.1298275e-07 5.0644655e-08 -1.6226147e-06
3.828147e-06 1.8603888e-06 -8.4795096e-07 -1.2097158e-06 2.1226049e-07 -3.8405988e-06 3.1735223e-07 -1.9056606e-07
-6.404239e-08 -2.0539754e-07 3.26295e-07 8.9050296e-08 5.157699e-07 -1.4915839e-06 2.875989e-07 3.683548e-07
-3.1478717e-07 1.9074187e-06 -1.7781091e-06 2.556872e-06 3.4320516e-07 1.1216323e-06 -4.6980054e-07 6.3332806e-07
-4.2363718e-06 2.424704e-06 -4.1292805e-07 -9.674532e-07 1.2979264e-06 4.6590165e-07 3.7637443e-07 -2.781969e-06
1.7292402e-06 4.1234472e-07 -6.309573e-07 5.654179e-06 1.9423034e-07 1.9214811e-07 7.4136364e-07 1.6058851e-07
3.4032055e-07 -2.2897389e-06 -1.979111e-06 3.8303415e-06 -2.1723635e-07 -5.6648486e-07 3.5383997e-07 7.5195226e-07
5.824016e-07 -2.2434169e-07 -2.4719266e-06 2.1826001e-07 -2.3327637e-07 -7.8241715e-07 -6.3771745e-07 3.4734374e-08
2.1927852e-07 -1.5906012e-07 8.9541015e-07 6.6925196e-08 3.7419677e-06 6.66162e-07 4.1716003e-06 -4.8439206e-06
-7.4245327e-07 -1.5502966e-06 -5.215207e-07 3.2617172e-07 1.18560175e-08 -6.5388206e-10 -5.2193195e-07 -6.2116226e-07
-5.339905e-07 -2.2905432e-07 6.1721397e-07 3.1481065e-07 -1.1596145e-06 -8.4568364e-07 -4.8711775e-07 -3.4742615e-07
5.217837e-07 -1.7099404e-07 -5.801793e-09 -4.7871964e-07 7.892618e-08 1.3088344e-06 3.7800277e-07 -1.7269591e-06
6.8876216e-07 -9.378498e-07 6.6479055e-07 1.1289593e-06 -3.3607666e-06 6.389616e-08 -2.0667642e-06 2.5839927e-07
-2.4680702e-07 4.7811323e-08 1.009013e-08 -2.1442777e-06 -3.0450582e-07 1.2711126e-08 -1.0974424e-06 -5.597067e-07
-1.8033179e-06 -5.1244416e-07 -7.5361817e-07 -1.1932648e-06 -3.2636933e-07 -2.2867557e-07 1.3961154e-06 2.1681127e-07
