backend/src/bert/models/sinks.pt (torch, 989498 bytes, 20 tensors)

weight f4 [256, 768]
00000000: c34c 23bc 3519 8fbd 356d 0ebd 5225 d2bc
00000010: 2274 08bc 8c92 71bd 7314 503b 77dd d2bd
00000020: ffc3 fcbc 56db f23c a7e8 aebd bfe3 c73c
00000030: 82ab 4bbb 05c4 623d 08ae 593d 3539 dbbc
00000040: 2d46 9d3c 4067 6fbd dc1e 373d 2ea8 3b3d
00000050: 1ba2 ebbc 150b 16bc 8a18 9abd 9220 4f3c
00000060: 3b73 38bd 34ca 173c 9c60 4ebb 7e0d c13c
00000070: d8f6 1abc 80f9 913d 9390 63bb 8adf 0d3d
00000080: 9516 7abd 2828 0b3c 92c4 cfbd 9370 c43c
00000090: 819b 23bd e9d8 41bd d055 7fba 8530 343d
000000a0: a286 40bd d85c 273d 5698 8dbc ebae 4cbd
000000b0: 6acb 01bd cd17 0abd 20f1 da3c 5b3f 49bc
000000c0: 5397 1bbc fb6a 66bd 4f5b ffba ce37 3cba
000000d0: 489c ff3b 59e9 5d3d fe26 2c3c d59d 8a3d
000000e0: 67e0 cb3b 1d3b 6b3b 377b ccbb 1e55 16b9
000000f0: 8c92 eabb df41 c2bc 790e 823d e747 1dbd
00000100: 9bce b1bc 48bf d13b 4dc3 e93b 94e1 d43c
00000110: cf58 633d 7d86 4d3d b69d 3c3d 9596 09bd
00000120: 576d 19bb a1f0 90bd cad6 103d 31ff bc3c
00000130: dc2c 923c 2510 50bd 70cf 033d 1303 32bc
00000140: 0c39 68bc 05a3 09bc 4460 80bb 0615 15bd
00000150: cc1e 91bb 4a95 f43c b8be d03b d3ea 363c
00000160: 482f b7bd ed08 b13c b221 ca3c 5280 9dbb
00000170: b960 99bb 1569 2e3c f14b d63b 1769 133d
00000180: eccb 733c fd56 39bd fa15 973d 2dd3 aebd
00000190: 1093 1dbd 5e73 2e3c b079 1abd e1d3 24bd
000001a0: b8b6 b3bc 9c87 51bd acd9 d13c ec1a fc3c
000001b0: df47 723c 4f88 e23c 6df5 3bb8 f101 f33d
000001c0: 73b5 123d bb7b 0c3d 14bd 5abc 3ff1 78bc
000001d0: dece 73bd 8dd0 8fbd 7ee0 55bd ed43 7fbd
000001e0: b27e 8b3c bbd5 763a b35d 9f3d b21b c13b
000001f0: 96e9 e03c f44b 093d aa98 0bbc 6033 47bc
00000200: cb94 34bd 3791 3a3c 8d5c 093d b265 afbb
00000210: e452 41bc f7b6 c93b 6a5e a73c 3a58 ce3c
00000220: f6ad 49bc 1e1b 9f3c 65c3 20bd 0c90 b03d
00000230: 3af5 60bd d8c2 cb3c 7419 e8bc 31ca a6bd
00000240: afff 63bd 9d32 0d3c 3cef e63c 3f3c d2bc
00000250: 3bab 93bc 9bb2 5b3c 5bb0 05bb e524 553c
00000260: 60e8 9f3b 1350 1a3d 3970 19bd 9993 cb3c
00000270: 1678 19bc 4049 15bb a570 403c 4197 383d
00000280: 462b 85bd 0fcb 843d df0b 86bd b39b bf3b
00000290: 5a28 58bd 240f 69bc 3e50 c3bc f1c7 acbc
000002a0: 7263 863d 367e 63bd 07e2 31bd 6a63 3abd
000002b0: 3174 1a38 f6a4 6a3c 3841 aebb 8ecd a43c
000002c0: edf8 833b cb3d 87bd c301 983d d16c 21bd
000002d0: 841a 6b3d 4ec9 2dbb 84e3 5c3b e485 ad3b
000002e0: 4099 123d 28ed 33bd 56f6 673d e327 0f3c
000002f0: 2354 3ebc 7695 99bd b193 1bbd 3024 a1bc
00000300: f0dc c13c 85ce 363d 8166 a93d 3d9d fabc
00000310: 810e 5b3d 24d2 aabb cdce 813d 0701 473d
00000320: 348f 19bd 5942 dd3d fa9c ab3a b342 0e3d
00000330: 0d1f a63c 8960 da3c e86c 763c 81fe fd3b
00000340: fe06 dcbb 16aa 903b 92b6 b13c dfcf 703d
00000350: d236 7c3d e5e9 76bc 8476 f7bc 95ba 713c
00000360: c551 35bd dd61 1bbc 924f 8c3c 0ffa 0e3c
00000370: 2410 1d3d 5a05 313c b9f9 973c 5eaf 243d
00000380: 6db8 97bc ccfa 6dbc 286a db3c 6ed4 95bd
00000390: 51b1 473c ffad d3bc 228a a3bb a853 2dbd
000003a0: 9a6f 8e3c ca88 b1bc d82a 32bd bf0d 95bc
000003b0: f1d6 023d f0cd 723d b3b7 2d3c a55b edbb
000003c0: de79 27bd 3a0f b1bd fa64 553d 5927 e939
000003d0: 232d 0cbd e92f 553d 7456 6ebd 4326 0abd
000003e0: cddb d8bd 2410 81bd 0219 103c 9c85 9abc
000003f0: 4643 89bb 9d90 b53c 645e 57bd 9d38 78bd
-0.009967032 -0.0698723 -0.034772117 -0.025652561 -0.0083284695 -0.05897765 0.003175047 -0.10296147
-0.030855177 0.029645603 -0.08540469 0.02440059 -0.0031077568 0.05536272 0.053144485 -0.026760677
0.019198501 -0.058448076 0.044707164 0.045814686 -0.028763821 -0.009157916 -0.07524212 0.012642043
-0.045031767 0.009264518 -0.003149069 0.023566004 -0.009458266 0.071276665 -0.0034723624 0.03463701
-0.061056692 0.008493461 -0.10144915 0.02397946 -0.039943222 -0.047326002 -0.0009740265 0.043991584
-0.047003396 0.040860027 -0.017284553 -0.049971502 -0.03168813 -0.033714104 0.026726305 -0.0122831715
-0.009496528 -0.05625437 -0.0019482168 -0.00071799464 0.0078006126 0.054177616 0.010507343 0.06768385
0.006221819 0.0035893389 -0.0062402743 -0.00014336823 -0.007158583 -0.02371305 0.06350417 -0.03839865
-0.021704962 0.0064009763 0.0071338774 0.02598647 0.055504616 0.050177086 0.046048842 -0.03359087
-0.002341112 -0.07077146 0.03536109 0.023070903 0.017843656 -0.050796647 0.03218025 -0.010864991
-0.014173757 -0.008400683 -0.0039177258 -0.036397003 -0.00442872 0.029856343 0.0063703917 0.011164385
-0.08944565 0.021610701 0.02467427 -0.0048065567 -0.0046807197 0.010645171 0.0065398146 0.035988893
0.014880162 -0.045248974 0.073772386 -0.08536372 -0.038470328 0.010647623 -0.037713706 -0.040241126
-0.021937713 -0.051154718 0.02561649 0.030774556 0.014787643 0.027652888 -4.4812845e-05 0.11865605
0.035817575 0.034297686 -0.013350744 -0.015194236 -0.059523456 -0.070222 -0.052216046 -0.06232064
0.017028186 0.00094160036 0.077815436 0.005893194 0.027455132 0.0335197 -0.008520285 -0.012158245
-0.044087213 0.011387161 0.03353553 -0.005352699 -0.011799548 0.0061558443 0.020430762 0.025188554
-0.012309542 0.01942211 -0.039248843 0.08621225 -0.054921366 0.024873182 -0.02833245 -0.08144034
-0.05566376 0.008618024 0.028190248 -0.025663493 -0.018025985 0.013409282 -0.0020399306 0.013009285
0.004879996 0.03767402 -0.03746054 0.024850653 -0.00936701 -0.0022779256 0.011745607 0.045066122
-0.065023944 0.06484043 -0.06545233 0.005847418 -0.052772857 -0.014224801 -0.023841973 -0.021091433
0.065619364 -0.055540286 -0.043428447 -0.045504965 3.6824673e-05 0.014321556 -0.0053178333 0.020117547
0.004027477 -0.06603583 0.07422211 -0.039410416 0.057398334 -0.0026517692 0.0033704946 0.005295502
0.03579068 -0.04392734 0.05663141 0.008737537 -0.011616739 -0.074992105 -0.037982646 -0.019670576
0.023664922 0.044630546 0.08271504 -0.030592555 0.05348063 -0.005213039 0.06338272 0.048584964
-0.037490085 0.108036704 0.0013093047 0.034731578 0.020278478 0.02665736 0.015040614 0.0077512865
-0.0067147007 0.004414807 0.021693502 0.05879199 0.06157572 -0.015070413 -0.03020788 0.014753957
-0.044267435 -0.009483782 0.017127786 0.008726611 0.03834547 0.010804499 0.018551694 0.040206306
-0.018520558 -0.014525127 0.026784018 -0.07315908 0.012188272 -0.025839804 -0.004990832 -0.04231611
0.0173872 -0.021671671 -0.04349789 -0.018195031 0.031943265 0.05927843 0.010602879 -0.007243591
-0.040887706 -0.08645482 0.052098252 0.0004447054 -0.034222733 0.052047644 -0.058187917 -0.033727895
-0.10588799 -0.06301907 0.008795025 -0.018862538 -0.004188928 0.022163684 -0.052580252 -0.060600866

bias f4 [256]
00000000: e1b3 bb36 9a8c 3637 6685 5636 3da6 9736
00000010: a859 2037 bb5a b7b7 b7b2 f536 3e72 f936
00000020: 49c5 5035 18e6 9336 8f2f 1bb7 e7fc 8034
00000030: 556d 1cb6 2a5a a9b6 4fbe 8f36 b4ef 1cb7
00000040: 3b34 ebb6 84f8 64b5 40c2 82b7 4665 35b6
00000050: a408 02b7 839c af37 807b 9bb6 7a41 bf35
00000060: bf85 cd34 32ec 76b5 2bdc d9b6 b3ba 6936
00000070: 262e 86b6 db71 fab5 554f 38b5 6ac2 57b7
00000080: aee2 9d35 1397 beb4 a779 1834 87f4 e535
00000090: 994d 73b6 384c 72b7 c944 9b35 12d9 ceb5
000000a0: 54d7 10b5 1bcd da36 3e56 f835 c538 8937
000000b0: b0b9 01b7 5f19 e3b7 9c42 5a35 e66b 8837
000000c0: 88c0 0d37 6d80 20b6 145e c0b6 294d 13b6
000000d0: 04c2 eab4 7b3e 7ab7 e8e9 1eb6 aaff 8836
000000e0: 27b0 a636 620d c336 a937 ab35 2e24 1bb6
000000f0: 7968 9cb7 d3ed 3db6 c1e5 0c35 7c01 7e36
00000100: 7fbf 6137 af31 cf34 7b1c 7334 ad3c 25b7
00000110: becd 2736 7566 abb6 ed5a 0b36 9c01 9f35
00000120: 7f06 f6b5 ac60 c9b6 84ac 28b6 3d98 beb6
00000130: a1aa 0cb7 f606 3534 f75a 22b6 3be2 1db7
00000140: b8ba aab6 72fe b0b5 44f1 3fb6 7d7b b934
00000150: c33a 8cb5 19fe 2237 ff72 a435 96d1 5b37
00000160: 61be 9335 5757 afb7 5f40 2036 f25d dbb6
00000170: 4795 e4b5 3127 10b6 984e fc35 a7d9 51b7
00000180: 6869 0a37 595f 2338 b156 2d36 2c95 d736
00000190: d9f3 3a33 b761 04b7 ac49 0637 1795 2bb7
000001a0: fb4e ac36 4ada 54b7 4dd0 9237 4584 3d36
000001b0: fa9b 4c36 465b 86b3 a8e0 3735 4562 e2b6
000001c0: c8cb 1336 0d0a 5a35 38d3 6eb5 f270 d2b6
000001d0: 6303 a1b5 8e07 7db6 7e6c 3ab6 e26f 8936
000001e0: a496 8937 ea74 3bb6 778d b336 1822 0336
000001f0: 1658 e536 2cf9 16b7 06f3 aa36 2eb5 d8b6
00000200: 13b7 1038 85c6 3a36 0df0 f7b7 2395 8a36
00000210: b0d7 a2b6 51ef 1b36 f506 77b6 d7d9 7535
00000220: 75d0 0ab7 18ef f8b6 0566 a236 040b 2a36
00000230: 2c96 4736 2be2 8b36 eb92 3236 0a04 1cb6
00000240: 4307 1fb5 36ad 2fb6 f831 38b6 278c bb37
00000250: 60d3 c935 9d8d c8b7 94d5 8b36 61a3 f034
00000260: a97f 9e36 c0b0 f337 6512 9cb4 e2bc afb6
00000270: 4a43 db34 8d3c e236 d7f1 91b5 1221 d9b5
00000280: 91e9 55b6 c89f cbb6 b1ce 5a37 0525 4ab6
00000290: cdf9 86b6 98c2 48b6 5866 3a36 d315 f735
000002a0: f891 e535 1830 8fb6 53d2 9bb4 253a 8d36
000002b0: 58d3 1735 00c3 5836 17cc 6737 b0f5 50b7
000002c0: 81d7 1b36 0eda 7db5 7d03 e2b5 8486 6836
000002d0: 1d8e 9cb5 e70b 8036 6a1b d536 674d cdb7
000002e0: d862 a5b4 5e57 63b6 6cf0 e8b7 5419 e136
000002f0: 6f6c 1bb6 6c74 9636 e85d 51b7 5699 0cb6
00000300: 3a3a 9f35 c954 16b8 d7b6 6eb7 4325 c8b6
00000310: c211 e134 0e2a 1735 7695 6136 8059 0c37
00000320: 8c21 edb5 cbfb 1836 0021 8e35 7506 74b5
00000330: c8eb d4b5 d40c bcb5 5064 8db5 5dc5 2bb6
00000340: 6ec8 a9b6 2078 efb6 8915 5837 e01d 1536
00000350: b08d b235 170a 76b7 e55e edb5 a9a3 d236
00000360: ef09 5b37 6ff6 2337 6ccd 2637 4aa2 bdb5
00000370: fdaf 49b7 a139 83b6 c4f0 3336 61ab a3b6
00000380: 87e8 cd35 8e88 62b6 4b0e 9533 6183 1d34
00000390: 9713 c8b6 a3f3 8337 ffef a6b7 abf5 d7b6
000003a0: 6a90 f1b6 1e3e ceb6 b574 d236 869f 41b6
000003b0: 68e6 31b6 fb6a 5535 5ab4 4a36 8fa1 f136
000003c0: decc e236 c6cf 51b7 fe1e 8f37 aa41 d7b6
000003d0: 0aee 0eb5 5234 b636 ca3e dab5 06ed 7936
000003e0: b53e 14b8 3ab6 0637 83e0 6036 b6aa 83b6
000003f0: 6e46 01b5 c3e7 2336 c88d ed36 f6d9 50b6
5.593975e-06 1.0880782e-05 3.1966133e-06 4.5195034e-06 9.557618e-06 -2.185755e-05 7.322374e-06 7.434078e-06
7.7773126e-07 4.407728e-06 -9.249793e-06 2.402587e-07 -2.330945e-06 -5.047089e-06 4.283887e-06 -9.354135e-06
-7.009626e-06 -8.5298257e-07 -1.5587662e-05 -2.703005e-06 -7.750616e-06 2.0934507e-05 -4.6337373e-06 1.4249665e-06
3.828154e-07 -9.198585e-07 -6.492735e-06 3.4828379e-06 -3.9988836e-06 -1.8659588e-06 -6.8660785e-07 -1.2860264e-05
1.1763384e-06 -3.550018e-07 1.420036e-07 1.7132996e-06 -3.625499e-06 -1.444207e-05 1.1568419e-06 -1.5411372e-06
-5.3957524e-07 6.5207837e-06 1.850254e-06 1.6358108e-05 -7.732233e-06 -2.7072323e-05 8.130826e-07 1.6262708e-05
8.449082e-06 -2.3916612e-06 -5.732998e-06 -2.194962e-06 -4.3727061e-07 -1.4915709e-05 -2.3679986e-06 4.082879e-06
4.9676923e-06 5.813011e-06 1.2756692e-06 -2.311786e-06 -1.8645298e-05 -2.8301627e-06 5.24884e-07 3.7849813e-06
1.3455631e-05 3.8592904e-07 2.26415e-07 -9.848894e-06 2.5004697e-06 -5.1081247e-06 2.076554e-06 1.1846892e-06
-1.8330319e-06 -6.001521e-06 -2.5134368e-06 -5.680164e-06 -8.384378e-06 1.6859471e-07 -2.419283e-06 -9.410603e-06
-5.0881317e-06 -1.3187075e-06 -2.8601653e-06 3.4548785e-07 -1.0447915e-06 9.715114e-06 1.225242e-06 1.3102215e-05
1.1007761e-06 -2.0902296e-05 2.3879327e-06 -6.5376453e-06 -1.7030769e-06 -2.1480485e-06 1.8798337e-06 -1.2508047e-05
8.249983e-06 3.8951028e-05 2.582947e-06 6.424865e-06 4.3528278e-08 -7.890564e-06 8.0041755e-06 -1.0227107e-05
5.135194e-06 -1.2687009e-05 1.7501554e-05 2.8240186e-06 3.048916e-06 -6.256464e-08 6.849973e-07 -6.746765e-06
2.2023323e-06 8.1225954e-07 -8.896927e-07 -6.2716363e-06 -1.199642e-06 -3.7704335e-06 -2.777931e-06 4.095943e-06
1.640182e-05 -2.7933224e-06 5.3510844e-06 1.9540366e-06 6.8349864e-06 -8.998712e-06 5.0946865e-06 -6.4583937e-06
3.4502777e-05 2.7831713e-06 -2.9556477e-05 4.1300823e-06 -4.8530856e-06 2.32361e-06 -3.6809918e-06 9.158661e-07
-8.273976e-06 -7.41881e-06 4.839853e-06 2.5338386e-06 2.9740722e-06 4.1688522e-06 2.6609584e-06 -2.3248163e-06
-5.9242683e-07 -2.6177854e-06 -2.7447222e-06 2.23574e-05 1.5037185e-06 -2.3907802e-05 4.1673866e-06 4.4822357e-07
4.7236285e-06 2.9050163e-05 -2.9070648e-07 -5.2373953e-06 4.0840888e-07 6.742374e-06 -1.0873727e-06 -1.6177385e-06
-3.1875427e-06 -6.0684724e-06 1.3041937e-05 -3.0121894e-06 -4.022592e-06 -2.991559e-06 2.7775732e-06 1.8409286e-06
1.7104312e-06 -4.267331e-06 -2.902403e-07 4.2088964e-06 5.655943e-07 3.2300013e-06 1.3816191e-05 -1.245497e-05
2.322224e-06 -9.4567156e-07 -1.6839327e-06 3.4648992e-06 -1.1664266e-06 3.816083e-06 6.351086e-06 -2.4473948e-05
-3.0805563e-07 -3.387649e-06 -2.776851e-05 6.708471e-06 -2.3159917e-06 4.4839016e-06 -1.2479235e-05 -2.095088e-06
1.1863369e-06 -3.584175e-05 -1.4228476e-05 -5.9648023e-06 4.1922436e-07 5.631308e-07 3.361461e-06 8.365489e-06
-1.766764e-06 2.2796328e-06 1.0589429e-06 -9.090648e-07 -1.5863852e-06 -1.4010825e-06 -1.0534513e-06 -2.5595866e-06
-5.0599256e-06 -7.1367394e-06 1.2879617e-05 2.222012e-06 1.330327e-06 -1.4665092e-05 -1.7685494e-06 6.2775403e-06
1.305573e-05 9.772934e-06 9.9421995e-06 -1.412883e-06 -1.2021509e-05 -3.910813e-06 2.6813223e-06 -4.8777297e-06
1.5341365e-06 -3.375611e-06 6.940953e-08 1.466956e-07 -5.962745e-06 1.572987e-05 -1.9900499e-05 -6.436099e-06
-7.1991717e-06 -6.14651e-06 6.272074e-06 -2.8852096e-06 -2.650917e-06 7.950436e-07 3.0205324e-06 7.2011676e-06
6.7591745e-06 -1.2505747e-05 1.706136e-05 -6.4151436e-06 -5.3245515e-07 5.4301136e-06 -1.626054e-06 3.7241857e-06
-3.534435e-05 8.02945e-06 3.3509284e-06 -3.9239776e-06 -4.8158734e-07 2.4423796e-06 7.079656e-06 -3.1121285e-06

weight f4 [256]
00000000: 6f66 813f 5bef 5e3f 23f0 573f 7b64 5b3f
00000010: 9e72 723f 1489 7b3f 3587 523f 5b72 733f
00000020: e5a5 623f 7dd1 753f fb13 6e3f 2da3 713f
00000030: 49fe 753f 36ca 613f 3d01 6f3f cf9e 713f
00000040: 14f7 703f ee15 693f f827 763f ffb6 5d3f
00000050: a588 5f3f 11d7 6d3f 7632 793f 8459 723f
00000060: d6ad 5c3f 66be 693f c79f 803f cfbe 4c3f
00000070: ae4a 753f 0b31 6e3f 8b9b 563f 72dc 6b3f
00000080: 1051 6f3f 5752 633f 4b03 6d3f b170 793f
00000090: 358a 7e3f 4237 793f 7b18 803f 403d 5a3f
000000a0: 63d8 7f3f f0ec 793f 124b 543f 6c28 723f
000000b0: a5b8 6a3f d672 6f3f b474 6f3f d303 7f3f
000000c0: 6abb 723f 940a 6d3f 0653 6d3f cd92 653f
000000d0: 4846 743f 3a8a 733f 39a4 633f fecd 5e3f
000000e0: 4ea9 6d3f be3a 6d3f 2251 5c3f b4ee 683f
000000f0: 4e42 693f b0eb 683f 2c60 673f ae2e 733f
00000100: 3740 833f 4d9e 703f d2c7 5f3f 7ebf 683f
00000110: 290e 743f 96bb 693f 87cb 813f 7145 713f
00000120: 4919 703f f2c8 713f 090a 753f a945 6c3f
00000130: 8056 633f 26fd 763f 088c 663f 1ed6 7d3f
00000140: 25c8 713f fb40 803f 7fb3 6f3f f738 773f
00000150: 1bb8 763f b764 6f3f aadf 733f e3aa 723f
00000160: 33ea 6d3f dbbb 713f fc15 603f f2ae 653f
00000170: 7cea 663f dd0d 6f3f fd30 533f c9ab 723f
00000180: 1dc4 793f 61b1 793f 4581 703f 6919 743f
00000190: 7c7c 6e3f 3686 7d3f ec47 773f 41f5 683f
000001a0: 5aa8 7e3f c45e 653f c4d8 7f3f 7a47 7d3f
000001b0: 9f9a 723f 28cd 783f d170 693f 3371 763f
000001c0: f416 723f 30c4 6b3f f90a 6e3f 9c2b 7d3f
000001d0: 80ee 5f3f afe9 6f3f 5f65 633f d0e1 663f
000001e0: 8bac 693f cd85 753f d9fa 783f e716 773f
000001f0: e3d5 693f 835f 6b3f c48c 553f 46b3 783f
00000200: 0a6f 823f ef99 663f f39c 7d3f 2803 713f
00000210: b5e8 713f fa48 513f e90c 673f 1039 6b3f
00000220: 5ea3 743f 0621 6e3f 5f1c 7c3f 204f 643f
00000230: 762f 7f3f acbf 783f 1e9c 663f 71d8 703f
00000240: bf84 7d3f 95fa 793f 7192 6c3f 046d 733f
00000250: 87f0 733f c199 753f 1a56 823f 09fe 7a3f
00000260: 8cce 6f3f 2463 823f b5a8 793f c314 7a3f
00000270: fbad 7b3f fef7 703f 23a1 7b3f efb1 713f
00000280: 3c57 6d3f e6e7 823f 0ebb 663f bd3a 6a3f
00000290: 5f06 643f ee60 763f 601e 773f f07d 743f
000002a0: 173c 6d3f 9f90 6e3f 6b92 683f e3b1 5f3f
000002b0: af77 7c3f 16ad 6c3f 3a00 7c3f 9988 773f
000002c0: 3055 7b3f 7bbc 6c3f 38ec 5d3f 19ce 643f
000002d0: d7a9 743f 01a0 693f 03cf 713f fd18 6f3f
000002e0: 63c0 733f ab18 803f 89ce 7d3f efbf 713f
000002f0: 1d06 663f a2c4 733f c9e7 6f3f 0bfb 723f
00000300: 20ee 7a3f 726e 813f 4212 843f cf0f 733f
00000310: e165 753f 19f1 683f 08cc 583f c144 753f
00000320: c051 773f 4476 803f 42b2 573f 3b05 713f
00000330: 900a 7b3f 1158 643f f60c 683f 139e 6c3f
00000340: 5113 723f 54b9 6f3f 2dba 753f ab67 723f
00000350: 9a83 563f 0254 803f fa71 623f 0b56 6c3f
00000360: c93f 783f d63e 6b3f d0de 813f 5157 6f3f
00000370: ad92 783f 2961 783f 157b 773f bd45 703f
00000380: 74b8 633f fbcb 6f3f 7036 693f e185 5a3f
00000390: dd0d 6b3f 9458 843f 0ca7 7b3f a0b6 733f
000003a0: 57ef 6a3f 045e 723f e5f9 783f a849 7e3f
000003b0: 8c54 753f 8640 5b3f 65ef 7b3f 8f0e 763f
000003c0: dade 803f 4396 733f 4c90 803f 7ac1 713f
000003d0: dc62 713f ff4d 6a3f 4436 6c3f 34d1 703f
000003e0: 0e43 7c3f 1f80 753f a110 703f 37c7 803f
000003f0: 4b6c 5d3f 2c52 623f de87 723f 14a5 643f
1.0109385 0.8708398 0.84350795 0.85700196 0.9470614 0.9825604 0.8223756 0.9509637
0.88534385 0.9602278 0.9299924 0.9438961 0.96091133 0.88199174 0.93361264 0.9438295
0.9412701 0.9104909 0.9615474 0.86607355 0.8731788 0.9290629 0.9734262 0.9466784
0.8620275 0.9130615 1.004876 0.7997865 0.9581708 0.93043584 0.8383109 0.9213325
0.93483067 0.88797516 0.9258315 0.9743758 0.9942964 0.9734994 1.0007471 0.8524971
0.99939555 0.9762716 0.8292705 0.9459293 0.91687995 0.935346 0.9353745 0.9961521
0.9481722 0.92594266 0.9270481 0.89677125 0.9541974 0.9513279 0.8892246 0.8703307
0.92836463 0.9266776 0.860613 0.9098923 0.911168 0.9098463 0.9038112 0.949931
1.0253972 0.9399155 0.87414277 0.90917194 0.95334107 0.9130186 1.0140237 0.94246584
0.9378858 0.94447243 0.9571844 0.9229379 0.88803864 0.96480024 0.9005742 0.9915484
0.9444602 1.001983 0.93633264 0.96571296 0.9637467 0.93513054 0.9526316 0.94792
0.92935485 0.9442727 0.87533545 0.8972007 0.90201545 0.9338053 0.82496625 0.94793373
0.9756487 0.97536284 0.9394725 0.9535127 0.931587 0.99032915 0.9659412 0.9099923
0.99475634 0.89597726 0.99940133 0.9893719 0.94767183 0.97188044 0.9118777 0.9626648
0.94566274 0.92096233 0.9298549 0.9889467 0.874733 0.9371595 0.88826555 0.9018831
0.91278905 0.9590729 0.97257763 0.9651932 0.9134199 0.91942614 0.83417916 0.9714855
1.0190136 0.90078634 0.9906761 0.9414544 0.9449571 0.8175198 0.90254074 0.91883945
0.9556178 0.9301914 0.9848079 0.89183235 0.99681795 0.9716747 0.90081966 0.94080263
0.9903068 0.9764798 0.9241095 0.9508822 0.9528889 0.95937735 1.0182526 0.98043877
0.9367454 1.0186505 0.9752305 0.9768793 0.9831235 0.94128406 0.9829275 0.9441213
0.92711234 1.022702 0.9012917 0.9149588 0.8907222 0.9624165 0.96530724 0.95504665
0.92669815 0.93189424 0.90848416 0.8738081 0.9862012 0.9245161 0.98437846 0.96692806
0.9817686 0.924751 0.86688566 0.8937698 0.95571655 0.9125977 0.944565 0.93397504
0.95215434 1.0007528 0.9914327 0.9443349 0.8985308 0.9522191 0.9371305 0.9491431
0.980196 1.011183 1.0318072 0.94945997 0.9585858 0.90992886 0.84686327 0.95808035
0.96609116 1.0036092 0.84256375 0.94148606 0.9806299 0.8919688 0.90644777 0.924287
0.94560724 0.93642163 0.95987207 0.94689435 0.8379456 1.0025637 0.88455164 0.9231879
0.9697233 0.91892755 1.0146122 0.9349261 0.9709881 0.97023255 0.96672183 0.9385641
0.8895333 0.93670624 0.9109869 0.85360533 0.9181803 1.0339532 0.9830177 0.9520054
0.91771454 0.94674706 0.9725631 0.9933114 0.95832133 0.8564533 0.9841216 0.96115965
1.0068009 0.95151156 1.0044036 0.94435847 0.9429147 0.9152526 0.922703 0.9406922
0.9853982 0.9589862 0.93775374 1.0060796 0.86493367 0.88406634 0.94738567 0.8931439

bias f4 [256]
00000000: 5681 d33c e59a 51be bda8 17be a307 47bd
00000010: a99d e1bd 24a8 1c3c df15 a3bd 3158 47bc
00000020: c682 99bd 82bb e0bd 1d74 d8bd f5c9 d3bc
00000030: 796a b6bb ff2b e1bc 90c7 86bc f91d 7dbc
00000040: afaf a7bd 69c7 74bd a75c 333c 7821 05bd
00000050: 145c 73bc e618 0abe 95d7 1abc a849 91bd
00000060: f47d 32b9 4711 0dbe 1502 973c 0c0b cbbd
00000070: 7f57 6dbc ebd0 f13a 3f79 83bd 12ae a1bc
00000080: 28d0 42bd 0dc6 a6bd 03bc 34bd 557a afbd
00000090: 6730 ebbc 10d6 99bd 5d5f a73c 3ff9 71bd
000000a0: 272c 97bd 9cb4 2dbd 6355 a6bd 7a3c 3cbe
000000b0: 6389 39bb 232f 19be 7ff5 8fbc 18a9 97bb
000000c0: 37e1 dcbc 485f e23c 24a3 8abd a418 ecbd
000000d0: 8f15 bb3c f489 8ebd 1480 5fbd 74d9 4f3c
000000e0: e8bf d3bd 9444 88bd 3677 1fbd 2c3a 99bd
000000f0: 76d1 acbd 7146 5fbd c535 eebd 9caf 45bd
00000100: fd17 e63b cf84 01be 34b1 a5bd 5a95 fcbd
00000110: 896e 96bd c891 23bd d1c9 1abb 3083 2d3c
00000120: e05e 13bb 57b2 94bd f928 16be 609b 87bc
00000130: 1197 d0bd a258 f9bd e0f4 1abc f86f 863b
00000140: 7652 433d 0fe7 423c 0f06 bbbd 0676 3a3d
00000150: 48ad a3bd 8968 c7bd d274 d2bd 9b74 e5bb
00000160: b715 77bd 82c9 07bd fc48 e2ba d056 17be
00000170: 3077 1abe ffa7 16bd 28d5 71bd 9a0e 19be
00000180: 08f5 f1bd 8a8e f9bd c3a6 15be 4ffc 95bd
00000190: 82eb 2ebd b013 063d e460 6dbe 4f5a abbd
000001a0: 6a6d 763c 9ee4 8a3b 36d6 833b d118 bfba
000001b0: 8a6a 7abc e23c 3abd c498 85bd 4531 17bd
000001c0: 3567 88bd 2dd7 44be 49b4 88bd ab16 fabc
000001d0: 8cfa 6ebd b6d1 a7bc 5588 4abd fee6 8bbd
000001e0: 6976 08be 34ac dbbc e2f5 873c c6d5 313c
000001f0: 50a2 c2bd 7569 48bd 396c c3bc e09a 00bd
00000200: 20f5 80bb 9ddf 30bd cda6 5ebd 93fb 22bd
00000210: 9412 02bd bec8 1fbd 71f1 67bd 5171 bcbd
00000220: d21a f739 fe67 1dbd 7206 85bd 06ce 743a
00000230: f61b e9bc 473a 003d e3fc ddbc 9517 f1bd
00000240: 4dc8 2bbc 6876 13bb 84e2 21be 1aaf a2bd
00000250: 026c 253c 1959 0bbe a777 ea3c f87f b2bd
00000260: eb72 4cbd a3ea 053c 39ad ab3c 7549 cc3c
00000270: a9f9 a6bc 1801 dcbd ee26 1abd 1abc 0e3c
00000280: 9e3d 433b bf08 3bbd 5fff e8bd 67fb 33bd
00000290: 8fb6 45be d744 10bd 3b68 61bd fcb5 23bc
000002a0: 82ed ebbc f737 b2bd 78b0 04be b6ff d3bd
000002b0: 3441 19bb 2150 f3b8 52d6 d9bc 71be 0c3c
000002c0: 2513 fcbd 283c dbbd 8a13 34bd 0563 f6bc
000002d0: 1e61 06bd ea82 71bb 8e48 0bbd 9e95 90bd
000002e0: 32b4 8fbd 208f 1dbd 8ea6 cabd 170a 31be
000002f0: d2a8 09be 96a8 423b 559e d6bb 86d1 bfbc
00000300: eadc cc3c 624a b0bd e185 81bc 0256 163c
00000310: 0b05 10bd 3730 7dbd a708 81bd 3a2e 0ebd
00000320: c54b 8a3c 1376 ddbc e93a 23bd 2263 07bd
00000330: b385 8cbc 5101 30be c0c2 b8bd ba45 f4bd
00000340: e70a 19be ab0f fabc 0bf0 c1bd 0f79 4cbd
00000350: c229 40bd 9f21 ffbc ff6f 04be 2456 80bd
00000360: b1d2 d3bd ecb9 c3bd 7ad8 e3bc 417b 37be
00000370: 3c76 a9bd 110c 8abd beb1 2cbe 3caa 96bd
00000380: f716 7bbd 7c3a 4ebd 47e3 b5bc 19cd 84bd
00000390: 8d83 afbd 4382 e8bc ab5b 17be c2d1 6ebd
000003a0: 1274 063c 9e15 78bd cb87 56bc e402 1ebe
000003b0: e729 7c3c 2eec 2ebc 7f6f e4bd 0f2b b93c
000003c0: 8c68 bebd 31a8 e2bd ff5b c6bd 60bb 1bbe
000003d0: c050 27bd 98ce f93c 62ed cfbd a144 a8bd
000003e0: 973f c4bc 75a0 51bd c967 f9bb df48 58bd
000003f0: 5e72 d4bd ffcb 5cbd aeef 10be 0151 31bd
0.025818508 -0.20469244 -0.14810462 -0.048591267 -0.110163994 0.009561572 -0.07963156 -0.012167023
-0.07495646 -0.10973264 -0.10569022 -0.025853137 -0.0055668917 -0.0274868 -0.01645258 -0.015449041
-0.08187806 -0.059760485 0.010947383 -0.03250262 -0.014853496 -0.1348606 -0.009450813 -0.07094127
-0.00017022324 -0.13776122 0.01843361 -0.099142164 -0.014486193 0.0018449103 -0.0641961 -0.019736324
-0.047561795 -0.08143244 -0.044124614 -0.08568255 -0.028709603 -0.07511532 0.020431215 -0.05907559
-0.07381468 -0.04240857 -0.08121755 -0.18382445 -0.0028310649 -0.14959387 -0.017573116 -0.004628312
-0.02696286 0.027633324 -0.06769398 -0.11528137 0.022837428 -0.06959906 -0.054565504 0.012686122
-0.103393376 -0.06653705 -0.038932048 -0.074817985 -0.08438389 -0.054510538 -0.116313495 -0.048263177
0.0070219026 -0.12648319 -0.080904394 -0.12333174 -0.07345302 -0.03993395 -0.0023618827 0.01059036
-0.002248697 -0.07260578 -0.14664067 -0.01655358 -0.10185064 -0.121751085 -0.009457797 0.004102703
0.047686063 0.011895909 -0.09132015 0.045522712 -0.07992035 -0.097367354 -0.10276188 -0.007002426
-0.060323443 -0.033151157 -0.0017264183 -0.1477921 -0.15084529 -0.036781307 -0.059041172 -0.14946976
-0.11814314 -0.1218539 -0.14614396 -0.07323515 -0.042705067 0.03273362 -0.23181492 -0.08366834
0.015040735 0.004238679 0.0040233387 -0.001457954 -0.01528419 -0.04546822 -0.06523278 -0.03691222
-0.0666031 -0.19222708 -0.06675012 -0.030528387 -0.05834441 -0.02048574 -0.049446423 -0.06831168
-0.1332642 -0.026815511 0.016596738 0.01085419 -0.09503615 -0.048928697 -0.023855316 -0.0313977
-0.003935471 -0.043182004 -0.054358292 -0.0397907 -0.031756 -0.039009802 -0.05662674 -0.09201301
0.00047131494 -0.038429253 -0.0649537 0.0009338561 -0.028455716 0.031305578 -0.027098125 -0.11772076
-0.010484767 -0.0022500996 -0.15809065 -0.07943554 0.010096552 -0.13608207 0.028621508 -0.08715814
-0.04991428 0.008173618 0.020956622 0.02493737 -0.02038272 -0.10742396 -0.037634782 0.008711839
0.0029791365 -0.045662638 -0.11376833 -0.043940928 -0.19307922 -0.0352219 -0.055031043 -0.009992119
-0.028799776 -0.08702081 -0.12957942 -0.10351507 -0.0023384811 -0.00011602068 -0.026591454 0.008590327
-0.12308339 -0.10704833 -0.043963946 -0.030076513 -0.032807462 -0.0036851713 -0.03400474 -0.07059787
-0.070167914 -0.038466573 -0.09895049 -0.17289005 -0.13443306 0.0029702536 -0.0065496364 -0.023415338
0.025007684 -0.086079374 -0.015810909 0.009175779 -0.03516106 -0.06181356 -0.063004784 -0.034712054
0.016881833 -0.027033841 -0.039851103 -0.033053525 -0.017153597 -0.17188002 -0.090215206 -0.11927362
-0.14945565 -0.03052505 -0.09469613 -0.049920138 -0.046914823 -0.031143961 -0.12933348 -0.0626643
-0.103429206 -0.09556946 -0.027813185 -0.17918111 -0.082745045 -0.06740583 -0.16864678 -0.073566884
-0.061301198 -0.050348744 -0.0222031 -0.06484432 -0.08570013 -0.028382426 -0.14781062 -0.05830551
0.008206384 -0.06056749 -0.013093899 -0.1543079 0.01539085 -0.010676427 -0.11154079 0.02260354
-0.092972845 -0.11067236 -0.096855156 -0.15208197 -0.040848494 0.03049402 -0.10152699 -0.08216215
-0.023956103 -0.051178414 -0.007611249 -0.05280387 -0.10373376 -0.053905483 -0.1415393 -0.043290142

running_mean f4 [256]
00000000: ee87 98bd 5c0c 9e3e de4f ddbe cada 45bd
00000010: c4a1 35bf ebf6 03bf 8a86 8dbd 15f8 f2be
00000020: 6764 f7bd 670f 78bd 544e 3cbe 0621 323f
00000030: f34f 25be 01b5 84be 75f3 d3be 60e3 f73d
00000040: 568e b83e bddb 983c cb32 48bd 7c21 493d
00000050: f407 c23e 2858 e0bd b384 01be bae5 c33e
00000060: ae3c c63d 4194 9f3e 44df 9c3d acb8 3a3e
00000070: 4471 4abe 93d7 803e c7d5 f03d f9b0 ab3e
00000080: 9595 81be b9cf 103e fcbe 95be d49e 9ebe
00000090: 5886 febd 1514 b7be a33e bfbd 96d1 ecbe
000000a0: 89b4 32be 97a0 a4be 2be2 7bbe 645a 84bd
000000b0: e304 123e 198b b63e f3b8 053e 2b33 b13e
000000c0: 812f 553e a8b5 25bd e4ce 333f af31 89bd
000000d0: a4e0 413d 537c 4ebc 0acd 393f 72fd 1f3e
000000e0: 2813 4f3f cd24 d8be 17a3 babe 1a91 a33e
000000f0: 0172 cc3e 825c 7bbd 74c4 41be 6c85 683d
00000100: 2503 09be d653 bfbe 2e3f 8a3e 339b 75bd
00000110: a116 9ebe 4789 debb 29bf aebe 99d2 1f3e
00000120: 9167 8dbe 00b6 233e b167 e33d c3ac c8bd
00000130: c528 c9be 137a f7be 1c23 e7be 0c54 4cbe
00000140: e3de 013f 75ba 163e 0375 07be c749 0c3c
00000150: 96f6 e13e e72d efbd efaa aa3e d5b9 113e
00000160: 1fc0 8f3e 596f d7be 230e 6a3e 6ab1 773d
00000170: 1891 e73e 8290 5a3e 5c33 c2bd 6dfb 2e3d
00000180: ab2c 2fbe b374 353f cd42 e93e d123 303f
00000190: 834e 49be 3ffb 08bf c788 2f3e 21d5 6ebd
000001a0: 34d9 93be a482 233f 71fa f43c f17f 98be
000001b0: fd02 db3e 5b44 e6bd 639c 1c3e 1b3d aabe
000001c0: 96d3 183e d494 513e 52ed 99be e3ab d6bd
000001d0: c666 d9bd 84cf 15be d411 b73e b29f 083f
000001e0: 63d4 633d f183 833e 92af 953e 3911 0bbe
000001f0: 9892 f23b 2c3f 133f 0404 033f 3d6f 34be
00000200: cd24 aabe 13e8 8bbe 8094 3b3f 52ad 6b3e
00000210: 8a42 db3d 53b9 08bf 1622 89bc e43c c7bd
00000220: dc0b 093f 1c32 de3d fad0 253d 68bc c83e
00000230: 93fe 963e f190 e9be 868f 17be d831 85be
00000240: faa6 95bd 924f 1bbe e203 8ebe 9b71 75be
00000250: 4b75 af3c 798c cc3d 64cd b73e 7ce2 393d
00000260: 2ccc 6dbe fd05 903e fc98 143f c14a 533e
00000270: 9a27 483e 3535 8d3e d8ca 283f 4af0 203d
00000280: b426 003d d210 ab3d 087c 4b3c 3ff1 cf3e
00000290: 865a 923d cbd8 aabe 5032 8f3e 0ec7 dbbe
000002a0: 0416 df3e 3145 2bbf 46a0 6b3c c2d1 1e3e
000002b0: d886 33bf 987f e3be 1c0f 8bbd 1d90 19bf
000002c0: e4db 88be 7f63 913c 27ef b83d 0eaa a43e
000002d0: 0b77 8fbe 875e c73d aef6 cfbc fdba da3e
000002e0: 5a7a 953e da16 513e a605 1b3e 7d19 debd
000002f0: cc7a 1e3f e1be bebe a3e8 9b3c 4f29 fabd
00000300: ffbc ddbe 491e b13e 9d36 0fbe 9bcf 953e
00000310: 11df 02bf c88b 2cbe 4aa6 f4bc 06d7 2e3e
00000320: 02f8 50be d4c0 38bd 3bd9 aabe b365 6b3e
00000330: 18bb 73be 63ac 0e3e 3748 3fbb 73e7 a93d
00000340: 8bac 7f3e 1ba7 853d 96a3 703e 0279 d0be
00000350: cb2a e93d 9299 cbbe b508 82bd 4fbd a63e
00000360: fc81 76bb 102b a0bc 7a1f 1dbf 5fca 323e
00000370: 3c34 04bd 3280 94bd a3fa 553f c088 f13d
00000380: 5c8f 91be 4526 063f ce8a 02bf c4dd e0bd
00000390: 97b9 e8be bc6a 203e 495f 3abc 057b a33e
000003a0: b91e 2ebe ac42 1e3e c6df 913e 6cf0 e53d
000003b0: f8c5 85be f17e 483d fc23 15be 4aaa acbc
000003c0: e41e 8fbe 3452 9abd 01f1 623c 76ca 9f3d
000003d0: dde9 9c3d 4ab6 253e 0814 57bd b8f9 c2be
000003e0: 8d14 fbbe fd8b 383e db21 cabd 9a23 783d
000003f0: 4627 30bf 73ad f0bd 2837 c23e f507 8abe
-0.074478015 0.30868804 -0.43224996 -0.048304357 -0.7094996 -0.5154864 -0.06910427 -0.47454897
-0.12079697 -0.060561564 -0.18389255 0.6958164 -0.1614378 -0.25919345 -0.4139668 0.12103915
0.36046094 0.018659467 -0.048876565 0.0491042 0.37896693 -0.109543145 -0.12648277 0.38261205
0.096795425 0.31167796 0.07659772 0.18234509 -0.1976977 0.2516447 0.11759525 0.33533457
-0.25309435 0.1414174 -0.29247272 -0.3098055 -0.12427968 -0.3575751 -0.09338119 -0.4625365
-0.17451681 -0.3215377 -0.24597995 -0.06462553 0.14259677 0.35652998 0.13058834 0.3460935
0.20818903 -0.040456444 0.70237565 -0.066989295 0.047333375 -0.012602883 0.7257849 0.15624025
0.80888605 -0.42215577 -0.36452553 0.3194664 0.39930728 -0.06136752 -0.18922597 0.056767866
-0.13380106 -0.3736865 0.27001327 -0.059962463 -0.3087664 -0.006791267 -0.3413022 0.1560768
-0.27618077 0.15987396 0.11103762 -0.09798577 -0.39288917 -0.48335323 -0.45143974 -0.19953936
0.50730723 0.14719565 -0.1322823 0.008562512 0.44133443 -0.11678677 0.33333537 0.14231046
0.28076264 -0.4207714 0.22856955 0.06047193 0.45227885 0.21344188 -0.09482452 0.042720247
-0.17106883 0.70881194 0.45558777 0.6880465 -0.19658856 -0.5350837 0.1714202 -0.058308724
-0.2887665 0.63871217 0.029904576 -0.29785112 0.42775717 -0.112435065 0.15294032 -0.33249745
0.14924464 0.2046693 -0.30063874 -0.104820035 -0.106153056 -0.14629942 0.3575579 0.53368676
0.05562247 0.256866 0.29235512 -0.13580789 0.0074027292 0.5751827 0.51178 -0.17620559
-0.33231202 -0.27325496 0.7327347 0.23015335 0.10706051 -0.5340778 -0.016739886 -0.09728411
0.5353372 0.10849401 0.0404825 0.39206243 0.294911 -0.45618394 -0.14800844 -0.2601459
-0.07307239 -0.15167072 -0.27737337 -0.23969118 0.021418234 0.099877305 0.35898888 0.045382008
-0.23222417 0.2812957 0.58045936 0.20633985 0.19546357 0.27579656 0.65934515 0.039291658
0.03128691 0.083528176 0.012419708 0.40613744 0.07146172 -0.33368525 0.27968073 -0.42925304
0.43571484 -0.6690245 0.014381474 0.15509704 -0.7012763 -0.44433284 -0.06789991 -0.59985524
-0.26730263 0.017747639 0.0902999 0.3216099 -0.2802051 0.097348265 -0.02538618 0.42720786
0.2919491 0.20418873 0.15138873 -0.10844705 0.61906123 -0.37255004 0.019031828 -0.1221491
-0.43308255 0.34593418 -0.13985677 0.29259953 -0.5112162 -0.16850197 -0.029864449 0.17074212
-0.20407107 -0.04510577 -0.3336886 0.22988014 -0.2380184 0.13932948 -0.002918733 0.082960986
0.24968164 0.065260135 0.23499903 -0.40717322 0.11385115 -0.39765602 -0.06349317 0.32566306
-0.0037614098 -0.019551784 -0.61376154 0.17460011 -0.032276377 -0.07251014 0.83585566 0.11793661
-0.28429687 0.52402145 -0.5099305 -0.109797984 -0.45454094 0.15665716 -0.011375257 0.31929794
-0.17003907 0.15455121 0.28491038 0.112274975 -0.261276 0.048949186 -0.14564508 -0.021077294
-0.27953255 -0.0753521 0.013851405 0.07802288 0.076617934 0.16182819 -0.052509338 -0.38081145
-0.49039117 0.18022151 -0.09869739 0.060580827 -0.68809927 -0.11751833 0.37932706 -0.26959196

running_var f4 [256]
00000000: fcd8 a83e 1e39 823e 796d 373f d2ec fd3e
00000010: 2a0c a03e c529 b23e 41cf aa3e e22d be3e
00000020: c5d1 9b3e 8f05 db3e 2a5f fd3e 214b 133f
00000030: 6ba4 ae3e 3aa6 af3e 3e16 d73e 7e66 cc3e
00000040: 42b9 df3e fd14 e03e 9133 9d3e c9a8 dc3e
00000050: f29b c43e 6295 d83e 3242 d43e bc34 ff3e
00000060: e361 0c3f 00e2 b23e d700 bb3e 295b f93e
00000070: 8c15 e43e 1f52 c93e 982f ce3e a510 e83e
00000080: c158 de3e 8902 c73e 6cfc 8d3e b8ec e23e
00000090: c6b5 8c3e df9c a83e 062a b73e 642f d13e
000000a0: b777 8b3e 56ae cb3e 309b ea3e c5cf 923e
000000b0: 198d c53e 0895 ba3e 060a c93e aa0a de3e
000000c0: 6809 fe3e 177f 1b3f cafb b83e 898e b43e
000000d0: 2655 e33e 1ac9 d13e 27fd 013f e180 fc3e
000000e0: 55cb e23e a8dd 1c3f 0841 f73e 100f 223f
000000f0: 4c5f 813e 0397 0e3f e516 fb3e 6ed9 af3e
00000100: a787 cc3e 9caa fe3e 268a b43e 75a7 d13e
00000110: c806 a23e c923 c73e 1852 c23e 6f9d 9a3e
00000120: 7e5f be3e 578f bc3e 4e9f bc3e 3e60 b83e
00000130: fa7a 073f 5080 013f 5f15 fd3e ae88 c33e
00000140: 45e2 153f 952c cd3e f7bc 963e eb02 a83e
00000150: 74de d33e c7c6 b53e c208 ba3e 305d 1a3f
00000160: eb11 df3e 5570 d83e df57 d83e 24f4 ba3e
00000170: 4b27 ab3e 1715 9d3e 6da6 de3e 499a b63e
00000180: 90cc e93e aec0 9d3e bc00 213f 8510 a53e
00000190: e547 d03e ff9d c43e b4ac 943e 6ac1 e93e
000001a0: 6714 d03e a4ff ba3e b574 cc3e 377b c03e
000001b0: 66cf 183f 48f2 0f3f 5202 be3e 3561 d63e
000001c0: 052d ef3e 9c34 ae3e afa3 183f 40fd 933e
000001d0: 280e d03e 78b2 143f 34c9 bf3e 1189 b53e
000001e0: 519d c63e 848b 333f 1099 b13e dd28 023f
000001f0: 1f5a 893e 5c80 cb3e 4560 fd3e b3a9 903e
00000200: 08d0 a33e d99c bf3e 62a3 a63e 4c41 a33e
00000210: 12a8 b53e 7f6a 033f 8c8f 9f3e 3e2b cd3e
00000220: 884e c33e 5870 be3e a74b a83e a2ea c63e
00000230: 17e2 a73e 5106 163f 292b b53e b2c9 ad3e
00000240: 28ea a43e 3689 9d3e 845d ba3e d961 b93e
00000250: 2076 b83e 3fe1 7c3e b01a da3e b375 a33e
00000260: a8c3 b23e 471b ca3e 0dbf ad3e a489 c63e
00000270: 4321 e93e df6b 983e 2eca b43e c2a6 f83e
00000280: 7821 ca3e 4177 b13e 8f55 ab3e afde b63e
00000290: 3616 ba3e 566d af3e 65c4 d23e ea6f e53e
000002a0: 948f ef3e 1d6b 523f 5229 013f b22e cd3e
000002b0: e490 e63e a153 b83e 6934 cd3e eb7d ee3e
000002c0: 8299 bb3e 7dc7 b63e 3f64 b73e 7a2f cc3e
000002d0: 7262 be3e bf9e a83e faed 963e 6720 9a3e
000002e0: c1fd bc3e d4af 9a3e 8721 9d3e d224 ab3e
000002f0: c82e f33e 4e72 a83e fe6e ad3e 50dc bd3e
00000300: 83b2 c43e 4f28 9c3e e0d2 a63e de7d e43e
00000310: 689e ca3e 3801 b03e 5b14 963e dd33 b73e
00000320: 11e1 f83e f157 d73e 1eda ff3e 5e2a de3e
00000330: 4504 de3e 1f98 943e ece2 bb3e 6298 ae3e
00000340: e955 9a3e 893b 113f dfa9 b23e 00c8 d53e
00000350: b3f9 8b3e 5a3d b93e 441f c93e 6137 ae3e
00000360: f214 e03e 5024 a13e cad1 963e d8f9 983e
00000370: 8240 7f3e 3b9c aa3e 5cfc a23e 80a2 dc3e
00000380: cea1 d23e d7dd f83e 97dc f83e a10b c63e
00000390: ab9f c43e 465a aa3e 5131 a33e 6250 a93e
000003a0: e84b d03e 4dcd 963e e7f6 ea3e 80f4 993e
000003b0: b43b 0d3f 1ba1 aa3e 0706 da3e b5db cf3e
000003c0: 1418 de3e f927 e13e 6e18 a13e ce0a 063f
000003d0: 0f2e 923e 50d0 cd3e d345 953e 04d5 033f
000003e0: c908 af3e 1b40 ae3e 766a c93e 934e c63e
000003f0: c41d d13e 2774 be3e 1fca 5c3e d595 aa3e
0.32978046 0.25434202 0.71651417 0.49594742 0.3125928 0.34797493 0.33361247 0.3714438
0.3043348 0.42777678 0.49486667 0.5753651 0.34109816 0.34306508 0.42009157 0.39921945
0.43696028 0.43766013 0.30703405 0.43097523 0.38400227 0.4230147 0.41456753 0.4984492
0.54836863 0.3493805 0.36524078 0.48702362 0.4454769 0.39320466 0.40270686 0.453252
0.4342709 0.38869122 0.27731645 0.44321227 0.27482432 0.32932183 0.3577425 0.4085647
0.27239773 0.39781445 0.45821524 0.2867414 0.3858421 0.36441827 0.3926546 0.4336751
0.4961655 0.607408 0.361296 0.35264996 0.444009 0.4097374 0.50776905 0.49317077
0.44295755 0.6127572 0.48291802 0.63304234 0.25268018 0.55699176 0.49040905 0.34345573
0.39947245 0.4973954 0.3526165 0.40948072 0.316458 0.3889449 0.37953258 0.30198237
0.3718223 0.3682811 0.3684029 0.36010927 0.5292202 0.50586414 0.49430367 0.38190216
0.58548385 0.40073076 0.29441044 0.32814726 0.41380656 0.35503218 0.36334807 0.6029844
0.43568358 0.42273203 0.4225454 0.3651439 0.33428416 0.30680153 0.43486348 0.35664585
0.4566388 0.30811065 0.62891746 0.32239166 0.4067985 0.3840179 0.29038012 0.45655376
0.40640566 0.36523163 0.3993279 0.37594005 0.59691465 0.56229067 0.37111145 0.41871038
0.46714035 0.34024513 0.5962476 0.28904152 0.406358 0.5808482 0.37458193 0.35456136
0.38791898 0.7013476 0.3468709 0.508436 0.2682657 0.39746368 0.4948751 0.2825447
0.31994653 0.37424353 0.32546526 0.31885755 0.3547979 0.51334375 0.31164205 0.40072054
0.38145852 0.37195086 0.32870218 0.38850886 0.3278968 0.5860339 0.3538449 0.33942944
0.32209897 0.30768746 0.36399472 0.36207464 0.36027622 0.246953 0.42598486 0.31925735
0.349149 0.39473936 0.33934823 0.38776886 0.4553319 0.297698 0.353105 0.48564726
0.3947866 0.34661296 0.33463714 0.3571677 0.3634507 0.34263104 0.41165462 0.44811946
0.4678923 0.8219469 0.50453675 0.40074688 0.45032418 0.36001304 0.40079048 0.46580443
0.36640555 0.35699072 0.3581867 0.39879972 0.37184483 0.32933614 0.29478437 0.30102846
0.3691235 0.3021227 0.30689642 0.3342653 0.4749663 0.32899708 0.33873743 0.37082148
0.38417444 0.30499503 0.3258276 0.4462728 0.3957398 0.3437593 0.29312405 0.35781756
0.48609212 0.4205928 0.49971098 0.433917 0.43362632 0.2902231 0.36696565 0.34100634
0.3014367 0.5673147 0.34895226 0.4175415 0.27338943 0.3617962 0.39281666 0.34026626
0.4376598 0.31473017 0.2945693 0.29878116 0.24926952 0.3332232 0.3183316 0.43092728
0.41139072 0.4860675 0.48605797 0.38680747 0.38403067 0.33271998 0.31873563 0.3306914
0.40682912 0.29453507 0.45891497 0.3006935 0.55169225 0.3332604 0.42582723 0.4059731
0.43377745 0.4397581 0.3146395 0.52360237 0.28550765 0.40197992 0.29154834 0.5149691
0.3418639 0.34033284 0.39339036 0.38731822 0.40843022 0.37197992 0.21561478 0.33317438

weight f4 [128, 256]
00000000: 77f3 a2bd e3ce 28bd 1958 b3bd af92 123d
00000010: 8aed 6abd d0c4 2c3d e961 8f3d 461b 1c3d
00000020: 53c2 833d acbd 9dbd a691 a13c 5b18 843c
00000030: bd6f fdbc cbf4 e93c 64e9 5c3d 0a89 00bb
00000040: 15bc 86bc 6430 eb3c b92d 4d3d 0763 70bc
00000050: 14c9 603d 930c 74bd d1a3 02bc d4aa b93c
00000060: 65e4 8a3d b99c 34bc 75fe 543d 5829 3c3d
00000070: cc6b bcbd af70 12bd 8b6d 683d 31f3 aa3c
00000080: 5954 793b 3cd4 8dbd ca76 353c 4cc5 d7bd
00000090: fd23 843c 613e dfbd 85fc e23d a9f7 dc3c
000000a0: f93a 36bd 15dd 8fbd 2ea0 0bbd 9ae2 2f3d
000000b0: fc5e c93c de85 5bbd b693 99bd 43e7 a23d
000000c0: f719 3c3d 92c0 cb3c 0204 dcbc e5a8 b1bc
000000d0: 6c7d 743d b7c4 5dbd ff1e 9d3d 5a47 963d
000000e0: 58ce 583d c036 1dbd 01a3 1b3d 9e0b 0fbd
000000f0: 389d 0d3b 5114 9fbd 710c 68bd 92ef 8bbc
00000100: 9a76 8c3d dba1 dfbc 7d77 5d3c 6d7c 9b3c
00000110: e8d1 c03c 6fc1 b03d ca82 643d 9e1c 3f3d
00000120: 8ac7 2a3d 69cb 13bd ba2b 53bb e9c1 0b3c
00000130: fdeb 2bbd ca7b 98bd 44cc 03bd 6081 a93c
00000140: 137a a63d 9778 863d 750d d83c bc3b 8abc
00000150: 8cc5 803d 0c5c 7b3c 83d1 1e3d 5a3e 7c3d
00000160: b32f a43d bb34 953d 848e a7bc 69cd 59bd
00000170: 6b0c b73c 8d4a 53bd 475f 123c 2386 98bd
00000180: 8b0e 4a3c 3e2f 333d 5ed1 8abd 519f 9c3d
00000190: ec76 94bd bb23 a6bc cbb7 fbbc b12c 7dbc
000001a0: ed11 7c3d f53d bf3c cae5 3f3d d144 8abd
000001b0: 8984 483d a1f9 b0ba 1d73 4f3c fbc6 0f3d
000001c0: 5274 32bd 3624 db3c 684e 6ebd 9c7d b03d
000001d0: 356c 153d e09e 7cbd e0bb 3fbd 3fa4 0dbd
000001e0: c5a2 843b a84a 9fbc a231 093d c512 1a3d
000001f0: 98f2 2ebd ad95 f3bc edd0 233d 9b76 8a3d
00000200: 6c2f 02bd cf76 a63c cc82 303d c34b 283d
00000210: 5a35 8cbd 1fe4 2fbd 5611 86bd 7763 853d
00000220: a3c4 ca3c 357c 9bbc 3333 903d f4c0 223c
00000230: adbb 03bb c5de 783d 3af8 293d 4e41 7e3c
00000240: 2cbe 3cbd 3a8e adbc 2b1f 2fbd 82ed ccba
00000250: 33d0 a5bd d3af 243d 46f9 f73b ef0b b9bc
00000260: 502d 583a 4e1e 5f3d 5e7a 223d 0cb3 583c
00000270: ddf8 f63c 9688 42bd 1bca 5a3c b13f c8bc
00000280: a24a 28bd 61a0 ec3c b709 923c 6041 983d
00000290: e2a9 e1bc ac18 41bd 95fc 983d 81d3 8f3d
000002a0: 4de0 a0bc 8987 c0bd 87dd eabd 859a 1ebd
000002b0: 98d2 a6bd a160 96bd 22b0 823c a0e1 d3bc
000002c0: d19b 17bd 61f9 ef3c 8533 063d 33fb ac3c
000002d0: 97aa 8b3d bdac c03c 80a1 45bc 5728 66bd
000002e0: e7c3 20bd 408d 1bbd 4981 ac3d a8f1 d1bd
000002f0: 58ff a53c 9f15 1ebb 240a 963d bf5c b0bd
00000300: b7cb d8bd c664 453d 8f84 a03d 1e76 15bd
00000310: af45 02bd 91a0 ed3c 004c f639 6b7c 07bd
00000320: abb3 c4bc a1ad d13d a535 f6bc 10aa c4bc
00000330: c3eb b4bc d10d eabc 5dcc 913b 40eb f03c
00000340: 705a bfbd 86bf 38bd b732 e439 4e2e 88bd
00000350: bc7a 4dbc 29eb 1bbd 3d92 ddbc 2c1c 173d
00000360: 3d86 17bc fb11 51bd 4d8e 853d 92c5 49bd
00000370: ade5 4b3d 1df8 ba3c 3a23 313c c962 4d3c
00000380: aaac 32bd 116d 963b 916d 983d 85bc 28bc
00000390: 66d7 15bd f6d8 b83d 4b6a 82bd 47cb e13d
000003a0: c149 423c 3ca5 a43c 335f c83c b529 3dbc
000003b0: e473 4b3d 2993 bfbc 55cd 56bc c087 183d
000003c0: e17f 1f3b 5c01 9abc a151 b33c ce77 bcbd
000003d0: 0ce9 8c3c 9424 103d 0c27 8a3c c517 29bd
000003e0: 1786 023d b63d 28bd ceb2 383d 85f6 a33d
000003f0: 22cc 843c 58a4 b1bd 09fa 2cbb 132c a1bd
-0.079565935 -0.041212928 -0.08757038 0.03578442 -0.05735544 0.042179883 0.07001097 0.038111947
0.06433549 -0.07702193 0.01972277 0.016124895 -0.03093707 0.02855911 0.053933516 -0.0019612932
-0.016447106 0.028709598 0.050092433 -0.014672047 0.054879263 -0.059582304 -0.007973627 0.022664465
0.06781844 -0.011023694 0.05200048 0.045937866 -0.09200248 -0.035751995 0.056745093 0.020867916
0.003804466 -0.06925246 0.011075685 -0.10535678 0.016130442 -0.1090057 0.110833205 0.026973562
-0.044489834 -0.0702459 -0.034088306 0.042940713 0.024581425 -0.053594463 -0.07498877 0.07954266
0.0459232 0.024872098 -0.02685738 -0.02168698 0.059689924 -0.05414268 0.07671928 0.07337828
0.05293116 -0.03838229 0.03799725 -0.03492319 0.0021608602 -0.07767547 -0.05665249 -0.01708201
0.06858559 -0.027298858 0.013517258 0.01898023 0.023537591 0.086306445 0.055788793 0.04665815
0.0416942 -0.03608266 -0.0032222108 0.0085301185 -0.041973103 -0.07445486 -0.032177225 0.020691574
0.081287526 0.065659694 0.026373604 -0.016874187 0.06287679 0.01534177 0.038774025 0.0615829
0.080169104 0.07285448 -0.020453699 -0.05317441 0.022344789 -0.05158477 0.008933849 -0.074474595
0.012332569 0.043746226 -0.06778215 0.07647575 -0.07249245 -0.02028071 -0.030727288 -0.01545255
0.061540533 0.023344973 0.046850003 -0.06751407 0.04895452 -0.001350213 0.0126617225 0.035101872
-0.043567963 0.026750665 -0.058180243 0.08617708 0.036480147 -0.061674953 -0.04681003 -0.034580465
0.004047724 -0.019444779 0.0334946 0.037615556 -0.042711824 -0.029734457 0.03999417 0.067609034
-0.031783506 0.020320324 0.043093488 0.041087877 -0.068461135 -0.042942163 -0.06546275 0.06513112
0.024751967 -0.018980125 0.070410155 0.009933699 -0.0020100877 0.060759325 0.041496493 0.0155185
-0.0460798 -0.021185983 -0.042754333 -0.0015634748 -0.080963515 0.04020674 0.0075675575 -0.022588698
0.0008246498 0.05447226 0.03966748 0.013226282 0.030147964 -0.04749354 0.01335385 -0.024444433
-0.0410868 0.028885068 0.017826898 0.07434344 -0.027546827 -0.04714267 0.07470051 0.07022763
-0.019638205 -0.09400851 -0.11468034 -0.03872158 -0.08145636 -0.07342649 0.015953127 -0.025864422
-0.037013832 0.029293718 0.032763977 0.021115875 0.06819647 0.023519868 -0.01206243 -0.056190815
-0.039249327 -0.037976503 0.08423097 -0.102511704 0.020263359 -0.0024121774 0.07326153 -0.0861144
-0.105857305 0.04819181 0.078377835 -0.0364896 -0.031804737 0.029007228 0.000469774 -0.03307764
-0.024011454 0.10238195 -0.030054877 -0.024006873 -0.022085076 -0.028571041 0.004449411 0.029409051
-0.093434215 -0.045104526 0.00043525334 -0.06649457 -0.012541469 -0.038066063 -0.02704727 0.0368921
-0.0092483135 -0.051042538 0.06521282 -0.049260683 0.049779583 0.022823388 0.010811621 0.012535759
-0.043621697 0.0045906384 0.07442773 -0.010298853 -0.036582373 0.09025757 -0.0636793 0.110251
0.011858405 0.020098321 0.024459457 -0.011545588 0.04967107 -0.023385601 -0.013110478 0.037238836
0.0024337696 -0.018799476 0.02188951 -0.092025384 0.01720097 0.035191134 0.016864322 -0.041282434
0.03186616 -0.041074477 0.045092396 0.08006004 0.01621062 -0.08673924 -0.002639415 -0.078697346

bias f4 [128]
00000000: ee6f 08b6 f834 4c36 8ef6 9235 1f41 27b7
00000010: 05df 4036 b9ec 0b35 be6a 2bb6 49eb 2136
00000020: d482 c7b5 b92f 21b6 7497 86b6 cbe8 c935
00000030: e789 0736 9b2f 8a36 c72f 59b7 9541 00b7
00000040: 5e61 3cb6 dec0 7a36 c93a b9b3 f4d2 0bb6
00000050: 6969 a236 5c21 04b5 250e 1db6 2678 c2b6
00000060: e4a4 8fb5 6e03 82b6 d3ff edb5 98bb b1b6
00000070: 869d cc33 ab3f 0636 b6cc 6ab5 d761 8bb6
00000080: b61e c032 2769 8936 b228 0a35 fa83 1ab5
00000090: ba72 8ab7 95e0 fcb6 1ab0 5b36 831e 3cb7
000000a0: 220e 5c35 aa9b 28b6 a948 1037 88cb 20b3
000000b0: 48ab cf35 88f8 1cb6 0b78 eeb6 b7bc 83b6
000000c0: e7e3 c7b6 cddc 40b6 5605 0eb6 6d0d bc36
000000d0: ac00 40b6 8c97 e934 3e91 41b5 fadd ed35
000000e0: 01de c437 751e ceb5 1063 40b6 f232 0036
000000f0: eced 3836 a1b5 2eb6 efed 4236 dc1f 8536
00000100: c0b1 b336 29f9 17b7 a578 67b1 63d8 1b35
00000110: d340 2d36 5071 d8b4 69c2 7637 6f2f 4d36
00000120: 3901 a4b6 3607 0fb7 08fe 8736 e45d f1b5
00000130: c521 49b6 aa08 9336 a321 fc35 af31 9237
00000140: b5e3 4036 8806 7b35 7c7c 6536 a24a 06b6
00000150: 2aa5 8a35 4319 8435 7278 1236 6848 17b6
00000160: 7bab deb5 b4e9 5eb5 9d90 5736 575f e036
00000170: a9ab ffb5 6e9f 9ab5 e4f5 91b4 d3e6 0ab6
00000180: 09c1 df35 d299 2536 da60 d835 41b3 2236
00000190: 9b71 7436 9110 4137 f461 4bb6 43b7 83b5
000001a0: 13e1 73b6 d5f9 c1b5 8e14 9635 dd4b 0637
000001b0: 00b9 46b6 6ffc f0b6 2e60 b435 8a4b dfb6
000001c0: 4cb0 1e37 4447 9735 111e 21b6 024b 9c35
000001d0: e622 a9b6 0429 2db6 3df6 37b7 7fef 32b3
000001e0: 67b0 1db6 70ea bdb6 b88e ddb5 8a41 d5b5
000001f0: 011e 2fb6 312e 7a35 a89b 8b34 0055 8c34
-2.033073e-06 3.04292e-06 1.0949605e-06 -9.969138e-06 2.8740044e-06 5.212601e-07 -2.5543118e-06 2.4127824e-06
-1.4864731e-06 -2.4018648e-06 -4.0111427e-06 1.5043419e-06 2.0196837e-06 4.1182625e-06 -1.2945332e-05 -7.644664e-06
-2.8070858e-06 3.7365166e-06 -8.625427e-08 -2.0835405e-06 4.8402476e-06 -4.9222376e-07 -2.3403056e-06 -5.7956377e-06
-1.070232e-06 -3.874701e-06 -1.7732331e-06 -5.29685e-06 9.5281436e-08 2.0004616e-06 -8.7469687e-07 -4.153913e-06
2.2365708e-08 4.0951595e-06 5.1468226e-07 -5.756152e-07 -1.6504306e-05 -7.53633e-06 3.2736048e-06 -1.1212777e-05
8.197695e-07 -2.512456e-06 8.599986e-06 -3.7438014e-08 1.5472551e-06 -2.3390476e-06 -7.1069276e-06 -3.9260735e-06
-5.9571935e-06 -2.8738752e-06 -2.1162755e-06 5.6043996e-06 -2.861062e-06 4.3509897e-07 -7.210946e-07 1.772248e-06
2.34684e-05 -1.535706e-06 -2.8667891e-06 1.910314e-06 2.7556625e-06 -2.6033742e-06 2.9046748e-06 3.967418e-06
5.3553085e-06 -9.0583135e-06 -3.3683503e-09 5.8056884e-07 2.5816742e-06 -4.031558e-07 1.4708007e-05 3.057499e-06
-4.887723e-06 -8.525143e-06 4.0528867e-06 -1.7983225e-06 -2.997099e-06 4.38195e-06 1.8785253e-06 1.7427692e-05
2.8742772e-06 9.351429e-07 3.4196119e-06 -2.0010998e-06 1.032987e-06 9.842119e-07 2.1825804e-06 -2.25429e-06
-1.6590196e-06 -8.304153e-07 3.2121673e-06 6.6868192e-06 -1.904894e-06 -1.1520294e-06 -2.7187264e-07 -2.069796e-06
1.6670975e-06 2.4676451e-06 1.6121442e-06 2.424422e-06 3.642496e-06 1.1507554e-05 -3.0306373e-06 -9.813597e-07
-3.6340832e-06 -1.4452331e-06 1.1181853e-06 8.004686e-06 -2.9611983e-06 -7.1819445e-06 1.3439037e-06 -6.654712e-06
9.458581e-06 1.1271118e-06 -2.400837e-06 1.1644736e-06 -5.040655e-06 -2.5802883e-06 -1.0964982e-05 -4.1661675e-08
-2.3497503e-06 -5.659931e-06 -1.650732e-06 -1.5888811e-06 -2.6094497e-06 9.3199475e-07 2.6004022e-07 2.6138878e-07
